




Generating 500 batches of 5 reads each.










Benchmarking /cpu:0.
Param grid: 
{'c_model': 'm1', 'a_n_read': 5, 'b_n_batch': 32, 'n': 500}





_________________________________________________________________
Layer (type)                 Output Shape              Param #   
=================================================================
input_1 (InputLayer)         (None, 640)               0         
_________________________________________________________________
embedding_1 (Embedding)      (None, 640, 64)           16448     
_________________________________________________________________
flatten_1 (Flatten)          (None, 40960)             0         
_________________________________________________________________
dense_1 (Dense)              (None, 128)               5243008   
_________________________________________________________________
dropout_1 (Dropout)          (None, 128)               0         
_________________________________________________________________
dense_2 (Dense)              (None, 5)                 645       
=================================================================
Total params: 5,260,101
Trainable params: 5,260,101
Non-trainable params: 0
_________________________________________________________________
None
Epoch 1/20
 32/500 [>.............................] - ETA: 16s - loss: 1.6058 64/500 [==>..............
…
 32/500 [>.............................] - ETA: 0s - loss: 0.7268288/500 [================>.............] - ETA: 0s - loss: 0.7594500/500 [==============================] - 0s - loss: 0.7648     





/cpu:0: 0.3391m (1.0173s per epoch).
/gpu:0: 0.046m (0.138s per epoch).






Generating 500 batches of 5 reads each.










Benchmarking /cpu:0.
Param grid: 
{'c_model': 'm2', 'a_n_read': 5, 'b_n_batch': 32, 'n': 500}





_________________________________________________________________
Layer (type)                 Output Shape              Param #   
=================================================================
input_2 (InputLayer)         (None, 640)               0         
_________________________________________________________________
embedding_2 (Embedding)      (None, 640, 64)           16448     
_________________________________________________________________
flatten_2 (Flatten)          (None, 40960)             0         
_________________________________________________________________
dense_3 (Dense)              (None, 128)               5243008   
_________________________________________________________________
dense_4 (Dense)              (None, 64)                8256      
_________________________________________________________________
dropout_2 (Dropout)          (None, 64)                0         
_________________________________________________________________
dense_5 (Dense)              (None, 5)                 325       
=================================================================
Total params: 5,268,037
Trainable params: 5,268,037
Non-trainable params: 0
_________________________________________________________________
None
Epoch 1/20
 32/500 [>.............................] - ETA: 4s - loss: 1.6030 64/500 [==>................
…
500/500 [==============================] - 0s - loss: 0.7781     





/cpu:0: 0.3296m (0.9889s per epoch).
/gpu:0: 0.0481m (0.1443s per epoch).






Generating 500 batches of 5 reads each.










Benchmarking /cpu:0.
Param grid: 
{'c_model': 'm3', 'a_n_read': 5, 'b_n_batch': 32, 'n': 500}





_________________________________________________________________
Layer (type)                 Output Shape              Param #   
=================================================================
input_3 (InputLayer)         (None, 640)               0         
_________________________________________________________________
embedding_3 (Embedding)      (None, 640, 64)           16448     
_________________________________________________________________
flatten_3 (Flatten)          (None, 40960)             0         
_________________________________________________________________
dense_6 (Dense)              (None, 128)               5243008   
_________________________________________________________________
dense_7 (Dense)              (None, 64)                8256      
_________________________________________________________________
dense_8 (Dense)              (None, 32)                2080      
_________________________________________________________________
dropout_3 (Dropout)          (None, 32)                0         
_________________________________________________________________
dense_9 (Dense)              (None, 5)                 165       
=================================================================
Total params: 5,269,957
Trainable params: 5,269,957
Non-trainable params: 0
_________________________________________________________________
None
Epoch 1/20
 32/500 [>.............................] - ETA: 4s - loss: 1.6163 64/500 [==>................
…
500/500 [==============================] - 0s - loss: 0.7891     





/cpu:0: 0.3329m (0.9987s per epoch).
/gpu:0: 0.0504m (0.1513s per epoch).






Generating 500 batches of 5 reads each.










Benchmarking /cpu:0.
Param grid: 
{'c_model': 'm4', 'a_n_read': 5, 'b_n_batch': 32, 'n': 500}





_________________________________________________________________
Layer (type)                 Output Shape              Param #   
=================================================================
input_4 (InputLayer)         (None, 640)               0         
_________________________________________________________________
embedding_4 (Embedding)      (None, 640, 128)          32896     
_________________________________________________________________
conv1d_1 (Conv1D)            (None, 640, 32)           8224      
_________________________________________________________________
flatten_4 (Flatten)          (None, 20480)             0         
_________________________________________________________________
dense_10 (Dense)             (None, 256)               5243136   
_________________________________________________________________
dropout_4 (Dropout)          (None, 256)               0         
_________________________________________________________________
dense_11 (Dense)             (None, 5)                 1285      
=================================================================
Total params: 5,285,541
Trainable params: 5,285,541
Non-trainable params: 0
_________________________________________________________________
None
Epoch 1/20
 32/500 [>.............................] - ETA: 10s - loss: 1.6061 64/500 [==>...............
…
500/500 [==============================] - 0s - loss: 0.9059     





/cpu:0: 0.3481m (1.0444s per epoch).
/gpu:0: 0.0604m (0.1813s per epoch).






Generating 500 batches of 5 reads each.










Benchmarking /cpu:0.
Param grid: 
{'c_model': 'm5', 'a_n_read': 5, 'b_n_batch': 32, 'n': 500}





_________________________________________________________________
Layer (type)                 Output Shape              Param #   
=================================================================
input_5 (InputLayer)         (None, 640)               0         
_________________________________________________________________
embedding_5 (Embedding)      (None, 640, 128)          32896     
_________________________________________________________________
conv1d_2 (Conv1D)            (None, 640, 32)           8224      
_________________________________________________________________
flatten_5 (Flatten)          (None, 20480)             0         
_________________________________________________________________
dense_12 (Dense)             (None, 256)               5243136   
_________________________________________________________________
dense_13 (Dense)             (None, 128)               32896     
_________________________________________________________________
dropout_5 (Dropout)          (None, 128)               0         
_________________________________________________________________
dense_14 (Dense)             (None, 5)                 645       
=================================================================
Total params: 5,317,797
Trainable params: 5,317,797
Non-trainable params: 0
_________________________________________________________________
None
Epoch 1/20
 32/500 [>.............................] - ETA: 5s - loss: 1.6004 64/500 [==>................
…
500/500 [==============================] - 0s - loss: 0.8398     





/cpu:0: 0.3413m (1.024s per epoch).
/gpu:0: 0.0646m (0.1938s per epoch).






Generating 500 batches of 5 reads each.










Benchmarking /cpu:0.
Param grid: 
{'c_model': 'm6', 'a_n_read': 5, 'b_n_batch': 32, 'n': 500}





_________________________________________________________________
Layer (type)                 Output Shape              Param #   
=================================================================
input_6 (InputLayer)         (None, 640)               0         
_________________________________________________________________
embedding_6 (Embedding)      (None, 640, 128)          32896     
_________________________________________________________________
conv1d_3 (Conv1D)            (None, 640, 32)           8224      
_________________________________________________________________
flatten_6 (Flatten)          (None, 20480)             0         
_________________________________________________________________
dense_15 (Dense)             (None, 256)               5243136   
_________________________________________________________________
dense_16 (Dense)             (None, 128)               32896     
_________________________________________________________________
dense_17 (Dense)             (None, 64)                8256      
_________________________________________________________________
dropout_6 (Dropout)          (None, 64)                0         
_________________________________________________________________
dense_18 (Dense)             (None, 5)                 325       
=================================================================
Total params: 5,325,733
Trainable params: 5,325,733
Non-trainable params: 0
_________________________________________________________________
None
Epoch 1/20
 32/500 [>.............................] - ETA: 5s - loss: 1.5976 64/500 [==>................
…
500/500 [==============================] - 0s - loss: 0.8560     





/cpu:0: 0.3467m (1.0402s per epoch).
/gpu:0: 0.0682m (0.2045s per epoch).






Generating 500 batches of 5 reads each.










Benchmarking /cpu:0.
Param grid: 
{'c_model': 'm7', 'a_n_read': 5, 'b_n_batch': 32, 'n': 500}





_________________________________________________________________
Layer (type)                 Output Shape              Param #   
=================================================================
input_7 (InputLayer)         (None, 640)               0         
_________________________________________________________________
embedding_7 (Embedding)      (None, 640, 128)          32896     
_________________________________________________________________
conv1d_4 (Conv1D)            (None, 640, 32)           8224      
_________________________________________________________________
dropout_7 (Dropout)          (None, 640, 32)           0         
_________________________________________________________________
conv1d_5 (Conv1D)            (None, 640, 32)           2080      
_________________________________________________________________
flatten_7 (Flatten)          (None, 20480)             0         
_________________________________________________________________
dense_19 (Dense)             (None, 256)               5243136   
_________________________________________________________________
dense_20 (Dense)             (None, 128)               32896     
_________________________________________________________________
dense_21 (Dense)             (None, 64)                8256      
_________________________________________________________________
dropout_8 (Dropout)          (None, 64)                0         
_________________________________________________________________
dense_22 (Dense)             (None, 5)                 325       
=================================================================
Total params: 5,327,813
Trainable params: 5,327,813
Non-trainable params: 0
_________________________________________________________________
None
Epoch 1/20
 32/500 [>.............................] - ETA: 7s - loss: 1.6147 64/500 [==>................
…
128/500 [======>.......................] - ETA: 0s - loss: 1.4346384/500 [======================>.......] - ETA: 0s - loss: 1.4079500/500 [==============================] - 0s - loss: 1.4268     





/cpu:0: 0.1158m (0.3475s per epoch).
/gpu:0: 0.0537m (0.1612s per epoch).






Generating 500 batches of 20 reads each.










Benchmarking /cpu:0.
Param grid: 
{'c_model': 'm1', 'a_n_read': 20, 'b_n_batch': 32, 'n': 500}





_________________________________________________________________
Layer (type)                 Output Shape              Param #   
=================================================================
input_29 (InputLayer)        (None, 2560)              0         
_________________________________________________________________
embedding_29 (Embedding)     (None, 2560, 64)          16448     
_________________________________________________________________
flatten_29 (Flatten)         (None, 163840)            0         
_________________________________________________________________
dense_89 (Dense)             (None, 128)               20971648  
_________________________________________________________________
dropout_33 (Dropout)         (None, 128)               0         
_________________________________________________________________
dense_90 (Dense)             (None, 5)                 645       
=================================================================
Total params: 20,988,741
Trainable params: 20,988,741
Non-trainable params: 0
_________________________________________________________________
None
Epoch 1/20
 32/500 [>.............................] - ETA: 16s - loss: 1.6058 64/500 [==>............
…
500/500 [==============================] - 0s - loss: 0.2369     





/cpu:0: 1.3014m (3.9042s per epoch).
/gpu:0: 0.1302m (0.3906s per epoch).






Generating 500 batches of 20 reads each.










Benchmarking /cpu:0.
Param grid: 
{'c_model': 'm2', 'a_n_read': 20, 'b_n_batch': 32, 'n': 500}





_________________________________________________________________
Layer (type)                 Output Shape              Param #   
=================================================================
input_30 (InputLayer)        (None, 2560)              0         
_________________________________________________________________
embedding_30 (Embedding)     (None, 2560, 64)          16448     
_________________________________________________________________
flatten_30 (Flatten)         (None, 163840)            0         
_________________________________________________________________
dense_91 (Dense)             (None, 128)               20971648  
_________________________________________________________________
dense_92 (Dense)             (None, 64)                8256      
_________________________________________________________________
dropout_34 (Dropout)         (None, 64)                0         
_________________________________________________________________
dense_93 (Dense)             (None, 5)                 325       
=================================================================
Total params: 20,996,677
Trainable params: 20,996,677
Non-trainable params: 0
_________________________________________________________________
None
Epoch 1/20
 32/500 [>.............................] - ETA: 16s - loss: 1.6043 64/500 [==>............
…
500/500 [==============================] - 0s - loss: 0.2087     





/cpu:0: 1.2868m (3.8605s per epoch).
/gpu:0: 0.1318m (0.3955s per epoch).






Generating 500 batches of 20 reads each.










Benchmarking /cpu:0.
Param grid: 
{'c_model': 'm3', 'a_n_read': 20, 'b_n_batch': 32, 'n': 500}





_________________________________________________________________
Layer (type)                 Output Shape              Param #   
=================================================================
input_31 (InputLayer)        (None, 2560)              0         
_________________________________________________________________
embedding_31 (Embedding)     (None, 2560, 64)          16448     
_________________________________________________________________
flatten_31 (Flatten)         (None, 163840)            0         
_________________________________________________________________
dense_94 (Dense)             (None, 128)               20971648  
_________________________________________________________________
dense_95 (Dense)             (None, 64)                8256      
_________________________________________________________________
dense_96 (Dense)             (None, 32)                2080      
_________________________________________________________________
dropout_35 (Dropout)         (None, 32)                0         
_________________________________________________________________
dense_97 (Dense)             (None, 5)                 165       
=================================================================
Total params: 20,998,597
Trainable params: 20,998,597
Non-trainable params: 0
_________________________________________________________________
None
Epoch 1/20
 32/500 [>.............................] - ETA: 20s - loss: 1.6104 64/500 [==>............
…
500/500 [==============================] - 0s - loss: 0.2627     





/cpu:0: 1.2934m (3.8802s per epoch).
/gpu:0: 0.1348m (0.4045s per epoch).






Generating 500 batches of 20 reads each.










Benchmarking /cpu:0.
Param grid: 
{'c_model': 'm4', 'a_n_read': 20, 'b_n_batch': 32, 'n': 500}





_________________________________________________________________
Layer (type)                 Output Shape              Param #   
=================================================================
input_32 (InputLayer)        (None, 2560)              0         
_________________________________________________________________
embedding_32 (Embedding)     (None, 2560, 128)         32896     
_________________________________________________________________
conv1d_21 (Conv1D)           (None, 2560, 32)          8224      
_________________________________________________________________
flatten_32 (Flatten)         (None, 81920)             0         
_________________________________________________________________
dense_98 (Dense)             (None, 256)               20971776  
_________________________________________________________________
dropout_36 (Dropout)         (None, 256)               0         
_________________________________________________________________
dense_99 (Dense)             (None, 5)                 1285      
=================================================================
Total params: 21,014,181
Trainable params: 21,014,181
Non-trainable params: 0
_________________________________________________________________
None
Epoch 1/20
 32/500 [>.............................] - ETA: 17s - loss: 1.6175 64/500 [==>.............
…
500/500 [==============================] - 0s - loss: 0.3428     





/cpu:0: 1.3479m (4.0436s per epoch).
/gpu:0: 0.1733m (0.5199s per epoch).






Generating 500 batches of 20 reads each.










Benchmarking /cpu:0.
Param grid: 
{'c_model': 'm5', 'a_n_read': 20, 'b_n_batch': 32, 'n': 500}





_________________________________________________________________
Layer (type)                 Output Shape              Param #   
=================================================================
input_33 (InputLayer)        (None, 2560)              0         
_________________________________________________________________
embedding_33 (Embedding)     (None, 2560, 128)         32896     
_________________________________________________________________
conv1d_22 (Conv1D)           (None, 2560, 32)          8224      
_________________________________________________________________
flatten_33 (Flatten)         (None, 81920)             0         
_________________________________________________________________
dense_100 (Dense)            (None, 256)               20971776  
_________________________________________________________________
dense_101 (Dense)            (None, 128)               32896     
_________________________________________________________________
dropout_37 (Dropout)         (None, 128)               0         
_________________________________________________________________
dense_102 (Dense)            (None, 5)                 645       
=================================================================
Total params: 21,046,437
Trainable params: 21,046,437
Non-trainable params: 0
_________________________________________________________________
None
Epoch 1/20
 32/500 [>.............................] - ETA: 18s - loss: 1.5958 64/500 [==>............
…
480/500 [===========================>..] - ETA: 0s - loss: 0.8144500/500 [==============================] - 3s - loss: 0.8103     





Benchmarking /gpu:0.
Param grid: 
{'c_model': 'm5', 'a_n_read': 20, 'b_n_batch': 32, 'n': 500}





_________________________________________________________________
Layer (type)                 Output Shape              Param #   
=================================================================
input_33 (InputLayer)        (None, 2560)              0         
_________________________________________________________________
embedding_33 (Embedding)     (None, 2560, 128)         32896     
_________________________________________________________________
conv1d_22 (Conv1D)           (None, 2560, 32)          8224      
_________________________________________________________________
flatten_33 (Flatten)         (None, 81920)             0         
_________________________________________________________________
dense_100 (Dense)            (None, 256)               20971776  
_________________________________________________________________
dense_101 (Dense)            (None, 128)               32896     
_________________________________________________________________
dropout_37 (Dropout)         (None, 128)               0         
_________________________________________________________________
dense_102 (Dense)            (None, 5)                 645       
=================================================================
Total params: 21,046,437
Trainable params: 21,046,437
Non-trainable params: 0
_________________________________________________________________
None
Epoch 1/20





Likely memory error; Skipping
Param grid: 
{'c_model': 'm5', 'a_n_read': 20, 'b_n_batch': 32, 'n': 500}





Generating 500 batches of 20 reads each.










Benchmarking /cpu:0.
Param grid: 
{'c_model': 'm6', 'a_n_read': 20, 'b_n_batch': 32, 'n': 500}





_________________________________________________________________
Layer (type)                 Output Shape              Param #   
=================================================================
input_34 (InputLayer)        (None, 2560)              0         
_________________________________________________________________
embedding_34 (Embedding)     (None, 2560, 128)         32896     
_________________________________________________________________
conv1d_23 (Conv1D)           (None, 2560, 32)          8224      
_________________________________________________________________
flatten_34 (Flatten)         (None, 81920)             0         
_________________________________________________________________
dense_103 (Dense)            (None, 256)               20971776  
_________________________________________________________________
dense_104 (Dense)            (None, 128)               32896     
_________________________________________________________________
dense_105 (Dense)            (None, 64)                8256      
_________________________________________________________________
dropout_38 (Dropout)         (None, 64)                0         
_________________________________________________________________
dense_106 (Dense)            (None, 5)                 325       
=================================================================
Total params: 21,054,373
Trainable params: 21,054,373
Non-trainable params: 0
_________________________________________________________________
None
Epoch 1/20





Likely memory error; Skipping
Param grid: 
{'c_model': 'm6', 'a_n_read': 20, 'b_n_batch': 32, 'n': 500}





Generating 500 batches of 20 reads each.










Benchmarking /cpu:0.
Param grid: 
{'c_model': 'm7', 'a_n_read': 20, 'b_n_batch': 32, 'n': 500}





_________________________________________________________________
Layer (type)                 Output Shape              Param #   
=================================================================
input_35 (InputLayer)        (None, 2560)              0         
_________________________________________________________________
embedding_35 (Embedding)     (None, 2560, 128)         32896     
_________________________________________________________________
conv1d_24 (Conv1D)           (None, 2560, 32)          8224      
_________________________________________________________________
dropout_39 (Dropout)         (None, 2560, 32)          0         
_________________________________________________________________
conv1d_25 (Conv1D)           (None, 2560, 32)          2080      
_________________________________________________________________
flatten_35 (Flatten)         (None, 81920)             0         
_________________________________________________________________
dense_107 (Dense)            (None, 256)               20971776  
_________________________________________________________________
dense_108 (Dense)            (None, 128)               32896     
_________________________________________________________________
dense_109 (Dense)            (None, 64)                8256      
_________________________________________________________________
dropout_40 (Dropout)         (None, 64)                0         
_________________________________________________________________
dense_110 (Dense)            (None, 5)                 325       
=================================================================
Total params: 21,056,453
Trainable params: 21,056,453
Non-trainable params: 0
_________________________________________________________________
None
Epoch 1/20





Likely memory error; Skipping
Param grid: 
{'c_model': 'm7', 'a_n_read': 20, 'b_n_batch': 32, 'n': 500}





Generating 500 batches of 20 reads each.










Benchmarking /cpu:0.
Param grid: 
{'c_model': 'm1', 'a_n_read': 20, 'b_n_batch': 64, 'n': 500}





_________________________________________________________________
Layer (type)                 Output Shape              Param #   
=================================================================
input_36 (InputLayer)        (None, 2560)              0         
_________________________________________________________________
embedding_36 (Embedding)     (None, 2560, 64)          16448     
_________________________________________________________________
flatten_36 (Flatten)         (None, 163840)            0         
_________________________________________________________________
dense_111 (Dense)            (None, 128)               20971648  
_________________________________________________________________
dropout_41 (Dropout)         (None, 128)               0         
_________________________________________________________________
dense_112 (Dense)            (None, 5)                 645       
=================================================================
Total params: 20,988,741
Trainable params: 20,988,741
Non-trainable params: 0
_________________________________________________________________
None
Epoch 1/20





Likely memory error; Skipping
Param grid: 
{'c_model': 'm1', 'a_n_read': 20, 'b_n_batch': 64, 'n': 500}





Generating 500 batches of 20 reads each.










Benchmarking /cpu:0.
Param grid: 
{'c_model': 'm2', 'a_n_read': 20, 'b_n_batch': 64, 'n': 500}





_________________________________________________________________
Layer (type)                 Output Shape              Param #   
=================================================================
input_37 (InputLayer)        (None, 2560)              0         
_________________________________________________________________
embedding_37 (Embedding)     (None, 2560, 64)          16448     
_________________________________________________________________
flatten_37 (Flatten)         (None, 163840)            0         
_________________________________________________________________
dense_113 (Dense)            (None, 128)               20971648  
_________________________________________________________________
dense_114 (Dense)            (None, 64)                8256      
_________________________________________________________________
dropout_42 (Dropout)         (None, 64)                0         
_________________________________________________________________
dense_115 (Dense)            (None, 5)                 325       
=================================================================
Total params: 20,996,677
Trainable params: 20,996,677
Non-trainable params: 0
_________________________________________________________________
None
Epoch 1/20





Likely memory error; Skipping
Param grid: 
{'c_model': 'm2', 'a_n_read': 20, 'b_n_batch': 64, 'n': 500}





Generating 500 batches of 20 reads each.










Benchmarking /cpu:0.
Param grid: 
{'c_model': 'm3', 'a_n_read': 20, 'b_n_batch': 64, 'n': 500}





_________________________________________________________________
Layer (type)                 Output Shape              Param #   
=================================================================
input_38 (InputLayer)        (None, 2560)              0         
_________________________________________________________________
embedding_38 (Embedding)     (None, 2560, 64)          16448     
_________________________________________________________________
flatten_38 (Flatten)         (None, 163840)            0         
_________________________________________________________________
dense_116 (Dense)            (None, 128)               20971648  
_________________________________________________________________
dense_117 (Dense)            (None, 64)                8256      
_________________________________________________________________
dense_118 (Dense)            (None, 32)                2080      
_________________________________________________________________
dropout_43 (Dropout)         (None, 32)                0         
_________________________________________________________________
dense_119 (Dense)            (None, 5)                 165       
=================================================================
Total params: 20,998,597
Trainable params: 20,998,597
Non-trainable params: 0
_________________________________________________________________
None
Epoch 1/20





Likely memory error; Skipping
Param grid: 
{'c_model': 'm3', 'a_n_read': 20, 'b_n_batch': 64, 'n': 500}





Generating 500 batches of 20 reads each.










Benchmarking /cpu:0.
Param grid: 
{'c_model': 'm4', 'a_n_read': 20, 'b_n_batch': 64, 'n': 500}





_________________________________________________________________
Layer (type)                 Output Shape              Param #   
=================================================================
input_39 (InputLayer)        (None, 2560)              0         
_________________________________________________________________
embedding_39 (Embedding)     (None, 2560, 128)         32896     
_________________________________________________________________
conv1d_26 (Conv1D)           (None, 2560, 32)          8224      
_________________________________________________________________
flatten_39 (Flatten)         (None, 81920)             0         
_________________________________________________________________
dense_120 (Dense)            (None, 256)               20971776  
_________________________________________________________________
dropout_44 (Dropout)         (None, 256)               0         
_________________________________________________________________
dense_121 (Dense)            (None, 5)                 1285      
=================================================================
Total params: 21,014,181
Trainable params: 21,014,181
Non-trainable params: 0
_________________________________________________________________
None
Epoch 1/20





Likely memory error; Skipping
Param grid: 
{'c_model': 'm4', 'a_n_read': 20, 'b_n_batch': 64, 'n': 500}





Generating 500 batches of 20 reads each.










Benchmarking /cpu:0.
Param grid: 
{'c_model': 'm5', 'a_n_read': 20, 'b_n_batch': 64, 'n': 500}





_________________________________________________________________
Layer (type)                 Output Shape              Param #   
=================================================================
input_40 (InputLayer)        (None, 2560)              0         
_________________________________________________________________
embedding_40 (Embedding)     (None, 2560, 128)         32896     
_________________________________________________________________
conv1d_27 (Conv1D)           (None, 2560, 32)          8224      
_________________________________________________________________
flatten_40 (Flatten)         (None, 81920)             0         
_________________________________________________________________
dense_122 (Dense)            (None, 256)               20971776  
_________________________________________________________________
dense_123 (Dense)            (None, 128)               32896     
_________________________________________________________________
dropout_45 (Dropout)         (None, 128)               0         
_________________________________________________________________
dense_124 (Dense)            (None, 5)                 645       
=================================================================
Total params: 21,046,437
Trainable params: 21,046,437
Non-trainable params: 0
_________________________________________________________________
None
Epoch 1/20





Likely memory error; Skipping
Param grid: 
{'c_model': 'm5', 'a_n_read': 20, 'b_n_batch': 64, 'n': 500}





Generating 500 batches of 20 reads each.










Benchmarking /cpu:0.
Param grid: 
{'c_model': 'm6', 'a_n_read': 20, 'b_n_batch': 64, 'n': 500}





_________________________________________________________________
Layer (type)                 Output Shape              Param #   
=================================================================
input_41 (InputLayer)        (None, 2560)              0         
_________________________________________________________________
embedding_41 (Embedding)     (None, 2560, 128)         32896     
_________________________________________________________________
conv1d_28 (Conv1D)           (None, 2560, 32)          8224      
_________________________________________________________________
flatten_41 (Flatten)         (None, 81920)             0         
_________________________________________________________________
dense_125 (Dense)            (None, 256)               20971776  
_________________________________________________________________
dense_126 (Dense)            (None, 128)               32896     
_________________________________________________________________
dense_127 (Dense)            (None, 64)                8256      
_________________________________________________________________
dropout_46 (Dropout)         (None, 64)                0         
_________________________________________________________________
dense_128 (Dense)            (None, 5)                 325       
=================================================================
Total params: 21,054,373
Trainable params: 21,054,373
Non-trainable params: 0
_________________________________________________________________
None
Epoch 1/20





Likely memory error; Skipping
Param grid: 
{'c_model': 'm6', 'a_n_read': 20, 'b_n_batch': 64, 'n': 500}





Generating 500 batches of 20 reads each.










Benchmarking /cpu:0.
Param grid: 
{'c_model': 'm7', 'a_n_read': 20, 'b_n_batch': 64, 'n': 500}





_________________________________________________________________
Layer (type)                 Output Shape              Param #   
=================================================================
input_42 (InputLayer)        (None, 2560)              0         
_________________________________________________________________
embedding_42 (Embedding)     (None, 2560, 128)         32896     
_________________________________________________________________
conv1d_29 (Conv1D)           (None, 2560, 32)          8224      
_________________________________________________________________
dropout_47 (Dropout)         (None, 2560, 32)          0         
_________________________________________________________________
conv1d_30 (Conv1D)           (None, 2560, 32)          2080      
_________________________________________________________________
flatten_42 (Flatten)         (None, 81920)             0         
_________________________________________________________________
dense_129 (Dense)            (None, 256)               20971776  
_________________________________________________________________
dense_130 (Dense)            (None, 128)               32896     
_________________________________________________________________
dense_131 (Dense)            (None, 64)                8256      
_________________________________________________________________
dropout_48 (Dropout)         (None, 64)                0         
_________________________________________________________________
dense_132 (Dense)            (None, 5)                 325       
=================================================================
Total params: 21,056,453
Trainable params: 21,056,453
Non-trainable params: 0
_________________________________________________________________
None
Epoch 1/20





Likely memory error; Skipping
Param grid: 
{'c_model': 'm7', 'a_n_read': 20, 'b_n_batch': 64, 'n': 500}





Generating 500 batches of 20 reads each.










Benchmarking /cpu:0.
Param grid: 
{'c_model': 'm1', 'a_n_read': 20, 'b_n_batch': 96, 'n': 500}





_________________________________________________________________
Layer (type)                 Output Shape              Param #   
=================================================================
input_43 (InputLayer)        (None, 2560)              0         
_________________________________________________________________
embedding_43 (Embedding)     (None, 2560, 64)          16448     
_________________________________________________________________
flatten_43 (Flatten)         (None, 163840)            0         
_________________________________________________________________
dense_133 (Dense)            (None, 128)               20971648  
_________________________________________________________________
dropout_49 (Dropout)         (None, 128)               0         
_________________________________________________________________
dense_134 (Dense)            (None, 5)                 645       
=================================================================
Total params: 20,988,741
Trainable params: 20,988,741
Non-trainable params: 0
_________________________________________________________________
None
Epoch 1/20





Likely memory error; Skipping
Param grid: 
{'c_model': 'm1', 'a_n_read': 20, 'b_n_batch': 96, 'n': 500}





Generating 500 batches of 20 reads each.










Benchmarking /cpu:0.
Param grid: 
{'c_model': 'm2', 'a_n_read': 20, 'b_n_batch': 96, 'n': 500}





_________________________________________________________________
Layer (type)                 Output Shape              Param #   
=================================================================
input_44 (InputLayer)        (None, 2560)              0         
_________________________________________________________________
embedding_44 (Embedding)     (None, 2560, 64)          16448     
_________________________________________________________________
flatten_44 (Flatten)         (None, 163840)            0         
_________________________________________________________________
dense_135 (Dense)            (None, 128)               20971648  
_________________________________________________________________
dense_136 (Dense)            (None, 64)                8256      
_________________________________________________________________
dropout_50 (Dropout)         (None, 64)                0         
_________________________________________________________________
dense_137 (Dense)            (None, 5)                 325       
=================================================================
Total params: 20,996,677
Trainable params: 20,996,677
Non-trainable params: 0
_________________________________________________________________
None
Epoch 1/20





Likely memory error; Skipping
Param grid: 
{'c_model': 'm2', 'a_n_read': 20, 'b_n_batch': 96, 'n': 500}





Generating 500 batches of 20 reads each.










Benchmarking /cpu:0.
Param grid: 
{'c_model': 'm3', 'a_n_read': 20, 'b_n_batch': 96, 'n': 500}





_________________________________________________________________
Layer (type)                 Output Shape              Param #   
=================================================================
input_45 (InputLayer)        (None, 2560)              0         
_________________________________________________________________
embedding_45 (Embedding)     (None, 2560, 64)          16448     
_________________________________________________________________
flatten_45 (Flatten)         (None, 163840)            0         
_________________________________________________________________
dense_138 (Dense)            (None, 128)               20971648  
_________________________________________________________________
dense_139 (Dense)            (None, 64)                8256      
_________________________________________________________________
dense_140 (Dense)            (None, 32)                2080      
_________________________________________________________________
dropout_51 (Dropout)         (None, 32)                0         
_________________________________________________________________
dense_141 (Dense)            (None, 5)                 165       
=================================================================
Total params: 20,998,597
Trainable params: 20,998,597
Non-trainable params: 0
_________________________________________________________________
None
Epoch 1/20





Likely memory error; Skipping
Param grid: 
{'c_model': 'm3', 'a_n_read': 20, 'b_n_batch': 96, 'n': 500}





Generating 500 batches of 20 reads each.










Benchmarking /cpu:0.
Param grid: 
{'c_model': 'm4', 'a_n_read': 20, 'b_n_batch': 96, 'n': 500}





_________________________________________________________________
Layer (type)                 Output Shape              Param #   
=================================================================
input_46 (InputLayer)        (None, 2560)              0         
_________________________________________________________________
embedding_46 (Embedding)     (None, 2560, 128)         32896     
_________________________________________________________________
conv1d_31 (Conv1D)           (None, 2560, 32)          8224      
_________________________________________________________________
flatten_46 (Flatten)         (None, 81920)             0         
_________________________________________________________________
dense_142 (Dense)            (None, 256)               20971776  
_________________________________________________________________
dropout_52 (Dropout)         (None, 256)               0         
_________________________________________________________________
dense_143 (Dense)            (None, 5)                 1285      
=================================================================
Total params: 21,014,181
Trainable params: 21,014,181
Non-trainable params: 0
_________________________________________________________________
None
Epoch 1/20





Likely memory error; Skipping
Param grid: 
{'c_model': 'm4', 'a_n_read': 20, 'b_n_batch': 96, 'n': 500}





Generating 500 batches of 20 reads each.










Benchmarking /cpu:0.
Param grid: 
{'c_model': 'm5', 'a_n_read': 20, 'b_n_batch': 96, 'n': 500}





_________________________________________________________________
Layer (type)                 Output Shape              Param #   
=================================================================
input_47 (InputLayer)        (None, 2560)              0         
_________________________________________________________________
embedding_47 (Embedding)     (None, 2560, 128)         32896     
_________________________________________________________________
conv1d_32 (Conv1D)           (None, 2560, 32)          8224      
_________________________________________________________________
flatten_47 (Flatten)         (None, 81920)             0         
_________________________________________________________________
dense_144 (Dense)            (None, 256)               20971776  
_________________________________________________________________
dense_145 (Dense)            (None, 128)               32896     
_________________________________________________________________
dropout_53 (Dropout)         (None, 128)               0         
_________________________________________________________________
dense_146 (Dense)            (None, 5)                 645       
=================================================================
Total params: 21,046,437
Trainable params: 21,046,437
Non-trainable params: 0
_________________________________________________________________
None
Epoch 1/20





Likely memory error; Skipping
Param grid: 
{'c_model': 'm5', 'a_n_read': 20, 'b_n_batch': 96, 'n': 500}





Generating 500 batches of 20 reads each.










Benchmarking /cpu:0.
Param grid: 
{'c_model': 'm6', 'a_n_read': 20, 'b_n_batch': 96, 'n': 500}





_________________________________________________________________
Layer (type)                 Output Shape              Param #   
=================================================================
input_48 (InputLayer)        (None, 2560)              0         
_________________________________________________________________
embedding_48 (Embedding)     (None, 2560, 128)         32896     
_________________________________________________________________
conv1d_33 (Conv1D)           (None, 2560, 32)          8224      
_________________________________________________________________
flatten_48 (Flatten)         (None, 81920)             0         
_________________________________________________________________
dense_147 (Dense)            (None, 256)               20971776  
_________________________________________________________________
dense_148 (Dense)            (None, 128)               32896     
_________________________________________________________________
dense_149 (Dense)            (None, 64)                8256      
_________________________________________________________________
dropout_54 (Dropout)         (None, 64)                0         
_________________________________________________________________
dense_150 (Dense)            (None, 5)                 325       
=================================================================
Total params: 21,054,373
Trainable params: 21,054,373
Non-trainable params: 0
_________________________________________________________________
None
Epoch 1/20





Likely memory error; Skipping
Param grid: 
{'c_model': 'm6', 'a_n_read': 20, 'b_n_batch': 96, 'n': 500}





Generating 500 batches of 20 reads each.










Benchmarking /cpu:0.
Param grid: 
{'c_model': 'm7', 'a_n_read': 20, 'b_n_batch': 96, 'n': 500}





_________________________________________________________________
Layer (type)                 Output Shape              Param #   
=================================================================
input_49 (InputLayer)        (None, 2560)              0         
_________________________________________________________________
embedding_49 (Embedding)     (None, 2560, 128)         32896     
_________________________________________________________________
conv1d_34 (Conv1D)           (None, 2560, 32)          8224      
_________________________________________________________________
dropout_55 (Dropout)         (None, 2560, 32)          0         
_________________________________________________________________
conv1d_35 (Conv1D)           (None, 2560, 32)          2080      
_________________________________________________________________
flatten_49 (Flatten)         (None, 81920)             0         
_________________________________________________________________
dense_151 (Dense)            (None, 256)               20971776  
_________________________________________________________________
dense_152 (Dense)            (None, 128)               32896     
_________________________________________________________________
dense_153 (Dense)            (None, 64)                8256      
_________________________________________________________________
dropout_56 (Dropout)         (None, 64)                0         
_________________________________________________________________
dense_154 (Dense)            (None, 5)                 325       
=================================================================
Total params: 21,056,453
Trainable params: 21,056,453
Non-trainable params: 0
_________________________________________________________________
None
Epoch 1/20





Likely memory error; Skipping
Param grid: 
{'c_model': 'm7', 'a_n_read': 20, 'b_n_batch': 96, 'n': 500}





Generating 500 batches of 20 reads each.










Benchmarking /cpu:0.
Param grid: 
{'c_model': 'm1', 'a_n_read': 20, 'b_n_batch': 128, 'n': 500}





_________________________________________________________________
Layer (type)                 Output Shape              Param #   
=================================================================
input_50 (InputLayer)        (None, 2560)              0         
_________________________________________________________________
embedding_50 (Embedding)     (None, 2560, 64)          16448     
_________________________________________________________________
flatten_50 (Flatten)         (None, 163840)            0         
_________________________________________________________________
dense_155 (Dense)            (None, 128)               20971648  
_________________________________________________________________
dropout_57 (Dropout)         (None, 128)               0         
_________________________________________________________________
dense_156 (Dense)            (None, 5)                 645       
=================================================================
Total params: 20,988,741
Trainable params: 20,988,741
Non-trainable params: 0
_________________________________________________________________
None
Epoch 1/20





Likely memory error; Skipping
Param grid: 
{'c_model': 'm1', 'a_n_read': 20, 'b_n_batch': 128, 'n': 500}





Generating 500 batches of 20 reads each.










Benchmarking /cpu:0.
Param grid: 
{'c_model': 'm2', 'a_n_read': 20, 'b_n_batch': 128, 'n': 500}





_________________________________________________________________
Layer (type)                 Output Shape              Param #   
=================================================================
input_51 (InputLayer)        (None, 2560)              0         
_________________________________________________________________
embedding_51 (Embedding)     (None, 2560, 64)          16448     
_________________________________________________________________
flatten_51 (Flatten)         (None, 163840)            0         
_________________________________________________________________
dense_157 (Dense)            (None, 128)               20971648  
_________________________________________________________________
dense_158 (Dense)            (None, 64)                8256      
_________________________________________________________________
dropout_58 (Dropout)         (None, 64)                0         
_________________________________________________________________
dense_159 (Dense)            (None, 5)                 325       
=================================================================
Total params: 20,996,677
Trainable params: 20,996,677
Non-trainable params: 0
_________________________________________________________________
None
Epoch 1/20





Likely memory error; Skipping
Param grid: 
{'c_model': 'm2', 'a_n_read': 20, 'b_n_batch': 128, 'n': 500}





Generating 500 batches of 20 reads each.










Benchmarking /cpu:0.
Param grid: 
{'c_model': 'm3', 'a_n_read': 20, 'b_n_batch': 128, 'n': 500}





_________________________________________________________________
Layer (type)                 Output Shape              Param #   
=================================================================
input_52 (InputLayer)        (None, 2560)              0         
_________________________________________________________________
embedding_52 (Embedding)     (None, 2560, 64)          16448     
_________________________________________________________________
flatten_52 (Flatten)         (None, 163840)            0         
_________________________________________________________________
dense_160 (Dense)            (None, 128)               20971648  
_________________________________________________________________
dense_161 (Dense)            (None, 64)                8256      
_________________________________________________________________
dense_162 (Dense)            (None, 32)                2080      
_________________________________________________________________
dropout_59 (Dropout)         (None, 32)                0         
_________________________________________________________________
dense_163 (Dense)            (None, 5)                 165       
=================================================================
Total params: 20,998,597
Trainable params: 20,998,597
Non-trainable params: 0
_________________________________________________________________
None
Epoch 1/20





Likely memory error; Skipping
Param grid: 
{'c_model': 'm3', 'a_n_read': 20, 'b_n_batch': 128, 'n': 500}





Generating 500 batches of 20 reads each.










Benchmarking /cpu:0.
Param grid: 
{'c_model': 'm4', 'a_n_read': 20, 'b_n_batch': 128, 'n': 500}





_________________________________________________________________
Layer (type)                 Output Shape              Param #   
=================================================================
input_53 (InputLayer)        (None, 2560)              0         
_________________________________________________________________
embedding_53 (Embedding)     (None, 2560, 128)         32896     
_________________________________________________________________
conv1d_36 (Conv1D)           (None, 2560, 32)          8224      
_________________________________________________________________
flatten_53 (Flatten)         (None, 81920)             0         
_________________________________________________________________
dense_164 (Dense)            (None, 256)               20971776  
_________________________________________________________________
dropout_60 (Dropout)         (None, 256)               0         
_________________________________________________________________
dense_165 (Dense)            (None, 5)                 1285      
=================================================================
Total params: 21,014,181
Trainable params: 21,014,181
Non-trainable params: 0
_________________________________________________________________
None
Epoch 1/20





Likely memory error; Skipping
Param grid: 
{'c_model': 'm4', 'a_n_read': 20, 'b_n_batch': 128, 'n': 500}





Generating 500 batches of 20 reads each.










Benchmarking /cpu:0.
Param grid: 
{'c_model': 'm5', 'a_n_read': 20, 'b_n_batch': 128, 'n': 500}





_________________________________________________________________
Layer (type)                 Output Shape              Param #   
=================================================================
input_54 (InputLayer)        (None, 2560)              0         
_________________________________________________________________
embedding_54 (Embedding)     (None, 2560, 128)         32896     
_________________________________________________________________
conv1d_37 (Conv1D)           (None, 2560, 32)          8224      
_________________________________________________________________
flatten_54 (Flatten)         (None, 81920)             0         
_________________________________________________________________
dense_166 (Dense)            (None, 256)               20971776  
_________________________________________________________________
dense_167 (Dense)            (None, 128)               32896     
_________________________________________________________________
dropout_61 (Dropout)         (None, 128)               0         
_________________________________________________________________
dense_168 (Dense)            (None, 5)                 645       
=================================================================
Total params: 21,046,437
Trainable params: 21,046,437
Non-trainable params: 0
_________________________________________________________________
None
Epoch 1/20





Likely memory error; Skipping
Param grid: 
{'c_model': 'm5', 'a_n_read': 20, 'b_n_batch': 128, 'n': 500}





Generating 500 batches of 20 reads each.










Benchmarking /cpu:0.
Param grid: 
{'c_model': 'm6', 'a_n_read': 20, 'b_n_batch': 128, 'n': 500}





_________________________________________________________________
Layer (type)                 Output Shape              Param #   
=================================================================
input_55 (InputLayer)        (None, 2560)              0         
_________________________________________________________________
embedding_55 (Embedding)     (None, 2560, 128)         32896     
_________________________________________________________________
conv1d_38 (Conv1D)           (None, 2560, 32)          8224      
_________________________________________________________________
flatten_55 (Flatten)         (None, 81920)             0         
_________________________________________________________________
dense_169 (Dense)            (None, 256)               20971776  
_________________________________________________________________
dense_170 (Dense)            (None, 128)               32896     
_________________________________________________________________
dense_171 (Dense)            (None, 64)                8256      
_________________________________________________________________
dropout_62 (Dropout)         (None, 64)                0         
_________________________________________________________________
dense_172 (Dense)            (None, 5)                 325       
=================================================================
Total params: 21,054,373
Trainable params: 21,054,373
Non-trainable params: 0
_________________________________________________________________
None
Epoch 1/20





Likely memory error; Skipping
Param grid: 
{'c_model': 'm6', 'a_n_read': 20, 'b_n_batch': 128, 'n': 500}





Generating 500 batches of 20 reads each.










Benchmarking /cpu:0.
Param grid: 
{'c_model': 'm7', 'a_n_read': 20, 'b_n_batch': 128, 'n': 500}





_________________________________________________________________
Layer (type)                 Output Shape              Param #   
=================================================================
input_56 (InputLayer)        (None, 2560)              0         
_________________________________________________________________
embedding_56 (Embedding)     (None, 2560, 128)         32896     
_________________________________________________________________
conv1d_39 (Conv1D)           (None, 2560, 32)          8224      
_________________________________________________________________
dropout_63 (Dropout)         (None, 2560, 32)          0         
_________________________________________________________________
conv1d_40 (Conv1D)           (None, 2560, 32)          2080      
_________________________________________________________________
flatten_56 (Flatten)         (None, 81920)             0         
_________________________________________________________________
dense_173 (Dense)            (None, 256)               20971776  
_________________________________________________________________
dense_174 (Dense)            (None, 128)               32896     
_________________________________________________________________
dense_175 (Dense)            (None, 64)                8256      
_________________________________________________________________
dropout_64 (Dropout)         (None, 64)                0         
_________________________________________________________________
dense_176 (Dense)            (None, 5)                 325       
=================================================================
Total params: 21,056,453
Trainable params: 21,056,453
Non-trainable params: 0
_________________________________________________________________
None
Epoch 1/20





Likely memory error; Skipping
Param grid: 
{'c_model': 'm7', 'a_n_read': 20, 'b_n_batch': 128, 'n': 500}





Generating 500 batches of 35 reads each.










Benchmarking /cpu:0.
Param grid: 
{'c_model': 'm1', 'a_n_read': 35, 'b_n_batch': 32, 'n': 500}





_________________________________________________________________
Layer (type)                 Output Shape              Param #   
=================================================================
input_57 (InputLayer)        (None, 4480)              0         
_________________________________________________________________
embedding_57 (Embedding)     (None, 4480, 64)          16448     
_________________________________________________________________
flatten_57 (Flatten)         (None, 286720)            0         
_________________________________________________________________
dense_177 (Dense)            (None, 128)               36700288  
_________________________________________________________________
dropout_65 (Dropout)         (None, 128)               0         
_________________________________________________________________
dense_178 (Dense)            (None, 5)                 645       
=================================================================
Total params: 36,717,381
Trainable params: 36,717,381
Non-trainable params: 0
_________________________________________________________________
None
Epoch 1/20





Likely memory error; Skipping
Param grid: 
{'c_model': 'm1', 'a_n_read': 35, 'b_n_batch': 32, 'n': 500}





Generating 500 batches of 35 reads each.










Benchmarking /cpu:0.
Param grid: 
{'c_model': 'm2', 'a_n_read': 35, 'b_n_batch': 32, 'n': 500}





_________________________________________________________________
Layer (type)                 Output Shape              Param #   
=================================================================
input_58 (InputLayer)        (None, 4480)              0         
_________________________________________________________________
embedding_58 (Embedding)     (None, 4480, 64)          16448     
_________________________________________________________________
flatten_58 (Flatten)         (None, 286720)            0         
_________________________________________________________________
dense_179 (Dense)            (None, 128)               36700288  
_________________________________________________________________
dense_180 (Dense)            (None, 64)                8256      
_________________________________________________________________
dropout_66 (Dropout)         (None, 64)                0         
_________________________________________________________________
dense_181 (Dense)            (None, 5)                 325       
=================================================================
Total params: 36,725,317
Trainable params: 36,725,317
Non-trainable params: 0
_________________________________________________________________
None
Epoch 1/20





Likely memory error; Skipping
Param grid: 
{'c_model': 'm2', 'a_n_read': 35, 'b_n_batch': 32, 'n': 500}





Generating 500 batches of 35 reads each.










Benchmarking /cpu:0.
Param grid: 
{'c_model': 'm3', 'a_n_read': 35, 'b_n_batch': 32, 'n': 500}





_________________________________________________________________
Layer (type)                 Output Shape              Param #   
=================================================================
input_59 (InputLayer)        (None, 4480)              0         
_________________________________________________________________
embedding_59 (Embedding)     (None, 4480, 64)          16448     
_________________________________________________________________
flatten_59 (Flatten)         (None, 286720)            0         
_________________________________________________________________
dense_182 (Dense)            (None, 128)               36700288  
_________________________________________________________________
dense_183 (Dense)            (None, 64)                8256      
_________________________________________________________________
dense_184 (Dense)            (None, 32)                2080      
_________________________________________________________________
dropout_67 (Dropout)         (None, 32)                0         
_________________________________________________________________
dense_185 (Dense)            (None, 5)                 165       
=================================================================
Total params: 36,727,237
Trainable params: 36,727,237
Non-trainable params: 0
_________________________________________________________________
None
Epoch 1/20





Likely memory error; Skipping
Param grid: 
{'c_model': 'm3', 'a_n_read': 35, 'b_n_batch': 32, 'n': 500}





Generating 500 batches of 35 reads each.










Benchmarking /cpu:0.
Param grid: 
{'c_model': 'm4', 'a_n_read': 35, 'b_n_batch': 32, 'n': 500}





_________________________________________________________________
Layer (type)                 Output Shape              Param #   
=================================================================
input_60 (InputLayer)        (None, 4480)              0         
_________________________________________________________________
embedding_60 (Embedding)     (None, 4480, 128)         32896     
_________________________________________________________________
conv1d_41 (Conv1D)           (None, 4480, 32)          8224      
_________________________________________________________________
flatten_60 (Flatten)         (None, 143360)            0         
_________________________________________________________________
dense_186 (Dense)            (None, 256)               36700416  
_________________________________________________________________
dropout_68 (Dropout)         (None, 256)               0         
_________________________________________________________________
dense_187 (Dense)            (None, 5)                 1285      
=================================================================
Total params: 36,742,821
Trainable params: 36,742,821
Non-trainable params: 0
_________________________________________________________________
None
Epoch 1/20





Likely memory error; Skipping
Param grid: 
{'c_model': 'm4', 'a_n_read': 35, 'b_n_batch': 32, 'n': 500}





Generating 500 batches of 35 reads each.










Benchmarking /cpu:0.
Param grid: 
{'c_model': 'm5', 'a_n_read': 35, 'b_n_batch': 32, 'n': 500}





_________________________________________________________________
Layer (type)                 Output Shape              Param #   
=================================================================
input_61 (InputLayer)        (None, 4480)              0         
_________________________________________________________________
embedding_61 (Embedding)     (None, 4480, 128)         32896     
_________________________________________________________________
conv1d_42 (Conv1D)           (None, 4480, 32)          8224      
_________________________________________________________________
flatten_61 (Flatten)         (None, 143360)            0         
_________________________________________________________________
dense_188 (Dense)            (None, 256)               36700416  
_________________________________________________________________
dense_189 (Dense)            (None, 128)               32896     
_________________________________________________________________
dropout_69 (Dropout)         (None, 128)               0         
_________________________________________________________________
dense_190 (Dense)            (None, 5)                 645       
=================================================================
Total params: 36,775,077
Trainable params: 36,775,077
Non-trainable params: 0
_________________________________________________________________
None
Epoch 1/20





Likely memory error; Skipping
Param grid: 
{'c_model': 'm5', 'a_n_read': 35, 'b_n_batch': 32, 'n': 500}





Generating 500 batches of 35 reads each.










Benchmarking /cpu:0.
Param grid: 
{'c_model': 'm6', 'a_n_read': 35, 'b_n_batch': 32, 'n': 500}





_________________________________________________________________
Layer (type)                 Output Shape              Param #   
=================================================================
input_62 (InputLayer)        (None, 4480)              0         
_________________________________________________________________
embedding_62 (Embedding)     (None, 4480, 128)         32896     
_________________________________________________________________
conv1d_43 (Conv1D)           (None, 4480, 32)          8224      
_________________________________________________________________
flatten_62 (Flatten)         (None, 143360)            0         
_________________________________________________________________
dense_191 (Dense)            (None, 256)               36700416  
_________________________________________________________________
dense_192 (Dense)            (None, 128)               32896     
_________________________________________________________________
dense_193 (Dense)            (None, 64)                8256      
_________________________________________________________________
dropout_70 (Dropout)         (None, 64)                0         
_________________________________________________________________
dense_194 (Dense)            (None, 5)                 325       
=================================================================
Total params: 36,783,013
Trainable params: 36,783,013
Non-trainable params: 0
_________________________________________________________________
None
Epoch 1/20





Likely memory error; Skipping
Param grid: 
{'c_model': 'm6', 'a_n_read': 35, 'b_n_batch': 32, 'n': 500}





Generating 500 batches of 35 reads each.










Benchmarking /cpu:0.
Param grid: 
{'c_model': 'm7', 'a_n_read': 35, 'b_n_batch': 32, 'n': 500}





_________________________________________________________________
Layer (type)                 Output Shape              Param #   
=================================================================
input_63 (InputLayer)        (None, 4480)              0         
_________________________________________________________________
embedding_63 (Embedding)     (None, 4480, 128)         32896     
_________________________________________________________________
conv1d_44 (Conv1D)           (None, 4480, 32)          8224      
_________________________________________________________________
dropout_71 (Dropout)         (None, 4480, 32)          0         
_________________________________________________________________
conv1d_45 (Conv1D)           (None, 4480, 32)          2080      
_________________________________________________________________
flatten_63 (Flatten)         (None, 143360)            0         
_________________________________________________________________
dense_195 (Dense)            (None, 256)               36700416  
_________________________________________________________________
dense_196 (Dense)            (None, 128)               32896     
_________________________________________________________________
dense_197 (Dense)            (None, 64)                8256      
_________________________________________________________________
dropout_72 (Dropout)         (None, 64)                0         
_________________________________________________________________
dense_198 (Dense)            (None, 5)                 325       
=================================================================
Total params: 36,785,093
Trainable params: 36,785,093
Non-trainable params: 0
_________________________________________________________________
None
Epoch 1/20





Likely memory error; Skipping
Param grid: 
{'c_model': 'm7', 'a_n_read': 35, 'b_n_batch': 32, 'n': 500}





Generating 500 batches of 35 reads each.










Benchmarking /cpu:0.
Param grid: 
{'c_model': 'm1', 'a_n_read': 35, 'b_n_batch': 64, 'n': 500}





_________________________________________________________________
Layer (type)                 Output Shape              Param #   
=================================================================
input_64 (InputLayer)        (None, 4480)              0         
_________________________________________________________________
embedding_64 (Embedding)     (None, 4480, 64)          16448     
_________________________________________________________________
flatten_64 (Flatten)         (None, 286720)            0         
_________________________________________________________________
dense_199 (Dense)            (None, 128)               36700288  
_________________________________________________________________
dropout_73 (Dropout)         (None, 128)               0         
_________________________________________________________________
dense_200 (Dense)            (None, 5)                 645       
=================================================================
Total params: 36,717,381
Trainable params: 36,717,381
Non-trainable params: 0
_________________________________________________________________
None
Epoch 1/20





Likely memory error; Skipping
Param grid: 
{'c_model': 'm1', 'a_n_read': 35, 'b_n_batch': 64, 'n': 500}





Generating 500 batches of 35 reads each.










Benchmarking /cpu:0.
Param grid: 
{'c_model': 'm2', 'a_n_read': 35, 'b_n_batch': 64, 'n': 500}





_________________________________________________________________
Layer (type)                 Output Shape              Param #   
=================================================================
input_65 (InputLayer)        (None, 4480)              0         
_________________________________________________________________
embedding_65 (Embedding)     (None, 4480, 64)          16448     
_________________________________________________________________
flatten_65 (Flatten)         (None, 286720)            0         
_________________________________________________________________
dense_201 (Dense)            (None, 128)               36700288  
_________________________________________________________________
dense_202 (Dense)            (None, 64)                8256      
_________________________________________________________________
dropout_74 (Dropout)         (None, 64)                0         
_________________________________________________________________
dense_203 (Dense)            (None, 5)                 325       
=================================================================
Total params: 36,725,317
Trainable params: 36,725,317
Non-trainable params: 0
_________________________________________________________________
None
Epoch 1/20





Likely memory error; Skipping
Param grid: 
{'c_model': 'm2', 'a_n_read': 35, 'b_n_batch': 64, 'n': 500}





Generating 500 batches of 35 reads each.










Benchmarking /cpu:0.
Param grid: 
{'c_model': 'm3', 'a_n_read': 35, 'b_n_batch': 64, 'n': 500}





_________________________________________________________________
Layer (type)                 Output Shape              Param #   
=================================================================
input_66 (InputLayer)        (None, 4480)              0         
_________________________________________________________________
embedding_66 (Embedding)     (None, 4480, 64)          16448     
_________________________________________________________________
flatten_66 (Flatten)         (None, 286720)            0         
_________________________________________________________________
dense_204 (Dense)            (None, 128)               36700288  
_________________________________________________________________
dense_205 (Dense)            (None, 64)                8256      
_________________________________________________________________
dense_206 (Dense)            (None, 32)                2080      
_________________________________________________________________
dropout_75 (Dropout)         (None, 32)                0         
_________________________________________________________________
dense_207 (Dense)            (None, 5)                 165       
=================================================================
Total params: 36,727,237
Trainable params: 36,727,237
Non-trainable params: 0
_________________________________________________________________
None
Epoch 1/20





Likely memory error; Skipping
Param grid: 
{'c_model': 'm3', 'a_n_read': 35, 'b_n_batch': 64, 'n': 500}





Generating 500 batches of 35 reads each.










Benchmarking /cpu:0.
Param grid: 
{'c_model': 'm4', 'a_n_read': 35, 'b_n_batch': 64, 'n': 500}





_________________________________________________________________
Layer (type)                 Output Shape              Param #   
=================================================================
input_67 (InputLayer)        (None, 4480)              0         
_________________________________________________________________
embedding_67 (Embedding)     (None, 4480, 128)         32896     
_________________________________________________________________
conv1d_46 (Conv1D)           (None, 4480, 32)          8224      
_________________________________________________________________
flatten_67 (Flatten)         (None, 143360)            0         
_________________________________________________________________
dense_208 (Dense)            (None, 256)               36700416  
_________________________________________________________________
dropout_76 (Dropout)         (None, 256)               0         
_________________________________________________________________
dense_209 (Dense)            (None, 5)                 1285      
=================================================================
Total params: 36,742,821
Trainable params: 36,742,821
Non-trainable params: 0
_________________________________________________________________
None
Epoch 1/20





Likely memory error; Skipping
Param grid: 
{'c_model': 'm4', 'a_n_read': 35, 'b_n_batch': 64, 'n': 500}





Generating 500 batches of 35 reads each.










Benchmarking /cpu:0.
Param grid: 
{'c_model': 'm5', 'a_n_read': 35, 'b_n_batch': 64, 'n': 500}





_________________________________________________________________
Layer (type)                 Output Shape              Param #   
=================================================================
input_68 (InputLayer)        (None, 4480)              0         
_________________________________________________________________
embedding_68 (Embedding)     (None, 4480, 128)         32896     
_________________________________________________________________
conv1d_47 (Conv1D)           (None, 4480, 32)          8224      
_________________________________________________________________
flatten_68 (Flatten)         (None, 143360)            0         
_________________________________________________________________
dense_210 (Dense)            (None, 256)               36700416  
_________________________________________________________________
dense_211 (Dense)            (None, 128)               32896     
_________________________________________________________________
dropout_77 (Dropout)         (None, 128)               0         
_________________________________________________________________
dense_212 (Dense)            (None, 5)                 645       
=================================================================
Total params: 36,775,077
Trainable params: 36,775,077
Non-trainable params: 0
_________________________________________________________________
None
Epoch 1/20





Likely memory error; Skipping
Param grid: 
{'c_model': 'm5', 'a_n_read': 35, 'b_n_batch': 64, 'n': 500}





Generating 500 batches of 35 reads each.










Benchmarking /cpu:0.
Param grid: 
{'c_model': 'm6', 'a_n_read': 35, 'b_n_batch': 64, 'n': 500}





_________________________________________________________________
Layer (type)                 Output Shape              Param #   
=================================================================
input_69 (InputLayer)        (None, 4480)              0         
_________________________________________________________________
embedding_69 (Embedding)     (None, 4480, 128)         32896     
_________________________________________________________________
conv1d_48 (Conv1D)           (None, 4480, 32)          8224      
_________________________________________________________________
flatten_69 (Flatten)         (None, 143360)            0         
_________________________________________________________________
dense_213 (Dense)            (None, 256)               36700416  
_________________________________________________________________
dense_214 (Dense)            (None, 128)               32896     
_________________________________________________________________
dense_215 (Dense)            (None, 64)                8256      
_________________________________________________________________
dropout_78 (Dropout)         (None, 64)                0         
_________________________________________________________________
dense_216 (Dense)            (None, 5)                 325       
=================================================================
Total params: 36,783,013
Trainable params: 36,783,013
Non-trainable params: 0
_________________________________________________________________
None
Epoch 1/20





Likely memory error; Skipping
Param grid: 
{'c_model': 'm6', 'a_n_read': 35, 'b_n_batch': 64, 'n': 500}





Generating 500 batches of 35 reads each.










Benchmarking /cpu:0.
Param grid: 
{'c_model': 'm7', 'a_n_read': 35, 'b_n_batch': 64, 'n': 500}





_________________________________________________________________
Layer (type)                 Output Shape              Param #   
=================================================================
input_70 (InputLayer)        (None, 4480)              0         
_________________________________________________________________
embedding_70 (Embedding)     (None, 4480, 128)         32896     
_________________________________________________________________
conv1d_49 (Conv1D)           (None, 4480, 32)          8224      
_________________________________________________________________
dropout_79 (Dropout)         (None, 4480, 32)          0         
_________________________________________________________________
conv1d_50 (Conv1D)           (None, 4480, 32)          2080      
_________________________________________________________________
flatten_70 (Flatten)         (None, 143360)            0         
_________________________________________________________________
dense_217 (Dense)            (None, 256)               36700416  
_________________________________________________________________
dense_218 (Dense)            (None, 128)               32896     
_________________________________________________________________
dense_219 (Dense)            (None, 64)                8256      
_________________________________________________________________
dropout_80 (Dropout)         (None, 64)                0         
_________________________________________________________________
dense_220 (Dense)            (None, 5)                 325       
=================================================================
Total params: 36,785,093
Trainable params: 36,785,093
Non-trainable params: 0
_________________________________________________________________
None
Epoch 1/20





Likely memory error; Skipping
Param grid: 
{'c_model': 'm7', 'a_n_read': 35, 'b_n_batch': 64, 'n': 500}





Generating 500 batches of 35 reads each.










Benchmarking /cpu:0.
Param grid: 
{'c_model': 'm1', 'a_n_read': 35, 'b_n_batch': 96, 'n': 500}





_________________________________________________________________
Layer (type)                 Output Shape              Param #   
=================================================================
input_71 (InputLayer)        (None, 4480)              0         
_________________________________________________________________
embedding_71 (Embedding)     (None, 4480, 64)          16448     
_________________________________________________________________
flatten_71 (Flatten)         (None, 286720)            0         
_________________________________________________________________
dense_221 (Dense)            (None, 128)               36700288  
_________________________________________________________________
dropout_81 (Dropout)         (None, 128)               0         
_________________________________________________________________
dense_222 (Dense)            (None, 5)                 645       
=================================================================
Total params: 36,717,381
Trainable params: 36,717,381
Non-trainable params: 0
_________________________________________________________________
None
Epoch 1/20





Likely memory error; Skipping
Param grid: 
{'c_model': 'm1', 'a_n_read': 35, 'b_n_batch': 96, 'n': 500}





Generating 500 batches of 35 reads each.










Benchmarking /cpu:0.
Param grid: 
{'c_model': 'm2', 'a_n_read': 35, 'b_n_batch': 96, 'n': 500}





_________________________________________________________________
Layer (type)                 Output Shape              Param #   
=================================================================
input_72 (InputLayer)        (None, 4480)              0         
_________________________________________________________________
embedding_72 (Embedding)     (None, 4480, 64)          16448     
_________________________________________________________________
flatten_72 (Flatten)         (None, 286720)            0         
_________________________________________________________________
dense_223 (Dense)            (None, 128)               36700288  
_________________________________________________________________
dense_224 (Dense)            (None, 64)                8256      
_________________________________________________________________
dropout_82 (Dropout)         (None, 64)                0         
_________________________________________________________________
dense_225 (Dense)            (None, 5)                 325       
=================================================================
Total params: 36,725,317
Trainable params: 36,725,317
Non-trainable params: 0
_________________________________________________________________
None
Epoch 1/20





Likely memory error; Skipping
Param grid: 
{'c_model': 'm2', 'a_n_read': 35, 'b_n_batch': 96, 'n': 500}





Generating 500 batches of 35 reads each.










Benchmarking /cpu:0.
Param grid: 
{'c_model': 'm3', 'a_n_read': 35, 'b_n_batch': 96, 'n': 500}





_________________________________________________________________
Layer (type)                 Output Shape              Param #   
=================================================================
input_73 (InputLayer)        (None, 4480)              0         
_________________________________________________________________
embedding_73 (Embedding)     (None, 4480, 64)          16448     
_________________________________________________________________
flatten_73 (Flatten)         (None, 286720)            0         
_________________________________________________________________
dense_226 (Dense)            (None, 128)               36700288  
_________________________________________________________________
dense_227 (Dense)            (None, 64)                8256      
_________________________________________________________________
dense_228 (Dense)            (None, 32)                2080      
_________________________________________________________________
dropout_83 (Dropout)         (None, 32)                0         
_________________________________________________________________
dense_229 (Dense)            (None, 5)                 165       
=================================================================
Total params: 36,727,237
Trainable params: 36,727,237
Non-trainable params: 0
_________________________________________________________________
None
Epoch 1/20





Likely memory error; Skipping
Param grid: 
{'c_model': 'm3', 'a_n_read': 35, 'b_n_batch': 96, 'n': 500}





Generating 500 batches of 35 reads each.










Benchmarking /cpu:0.
Param grid: 
{'c_model': 'm4', 'a_n_read': 35, 'b_n_batch': 96, 'n': 500}





_________________________________________________________________
Layer (type)                 Output Shape              Param #   
=================================================================
input_74 (InputLayer)        (None, 4480)              0         
_________________________________________________________________
embedding_74 (Embedding)     (None, 4480, 128)         32896     
_________________________________________________________________
conv1d_51 (Conv1D)           (None, 4480, 32)          8224      
_________________________________________________________________
flatten_74 (Flatten)         (None, 143360)            0         
_________________________________________________________________
dense_230 (Dense)            (None, 256)               36700416  
_________________________________________________________________
dropout_84 (Dropout)         (None, 256)               0         
_________________________________________________________________
dense_231 (Dense)            (None, 5)                 1285      
=================================================================
Total params: 36,742,821
Trainable params: 36,742,821
Non-trainable params: 0
_________________________________________________________________
None
Epoch 1/20





Likely memory error; Skipping
Param grid: 
{'c_model': 'm4', 'a_n_read': 35, 'b_n_batch': 96, 'n': 500}





Generating 500 batches of 35 reads each.










Benchmarking /cpu:0.
Param grid: 
{'c_model': 'm5', 'a_n_read': 35, 'b_n_batch': 96, 'n': 500}





_________________________________________________________________
Layer (type)                 Output Shape              Param #   
=================================================================
input_75 (InputLayer)        (None, 4480)              0         
_________________________________________________________________
embedding_75 (Embedding)     (None, 4480, 128)         32896     
_________________________________________________________________
conv1d_52 (Conv1D)           (None, 4480, 32)          8224      
_________________________________________________________________
flatten_75 (Flatten)         (None, 143360)            0         
_________________________________________________________________
dense_232 (Dense)            (None, 256)               36700416  
_________________________________________________________________
dense_233 (Dense)            (None, 128)               32896     
_________________________________________________________________
dropout_85 (Dropout)         (None, 128)               0         
_________________________________________________________________
dense_234 (Dense)            (None, 5)                 645       
=================================================================
Total params: 36,775,077
Trainable params: 36,775,077
Non-trainable params: 0
_________________________________________________________________
None
Epoch 1/20





Likely memory error; Skipping
Param grid: 
{'c_model': 'm5', 'a_n_read': 35, 'b_n_batch': 96, 'n': 500}





Generating 500 batches of 35 reads each.










Benchmarking /cpu:0.
Param grid: 
{'c_model': 'm6', 'a_n_read': 35, 'b_n_batch': 96, 'n': 500}





_________________________________________________________________
Layer (type)                 Output Shape              Param #   
=================================================================
input_76 (InputLayer)        (None, 4480)              0         
_________________________________________________________________
embedding_76 (Embedding)     (None, 4480, 128)         32896     
_________________________________________________________________
conv1d_53 (Conv1D)           (None, 4480, 32)          8224      
_________________________________________________________________
flatten_76 (Flatten)         (None, 143360)            0         
_________________________________________________________________
dense_235 (Dense)            (None, 256)               36700416  
_________________________________________________________________
dense_236 (Dense)            (None, 128)               32896     
_________________________________________________________________
dense_237 (Dense)            (None, 64)                8256      
_________________________________________________________________
dropout_86 (Dropout)         (None, 64)                0         
_________________________________________________________________
dense_238 (Dense)            (None, 5)                 325       
=================================================================
Total params: 36,783,013
Trainable params: 36,783,013
Non-trainable params: 0
_________________________________________________________________
None
Epoch 1/20





Likely memory error; Skipping
Param grid: 
{'c_model': 'm6', 'a_n_read': 35, 'b_n_batch': 96, 'n': 500}





Generating 500 batches of 35 reads each.










Benchmarking /cpu:0.
Param grid: 
{'c_model': 'm7', 'a_n_read': 35, 'b_n_batch': 96, 'n': 500}





_________________________________________________________________
Layer (type)                 Output Shape              Param #   
=================================================================
input_77 (InputLayer)        (None, 4480)              0         
_________________________________________________________________
embedding_77 (Embedding)     (None, 4480, 128)         32896     
_________________________________________________________________
conv1d_54 (Conv1D)           (None, 4480, 32)          8224      
_________________________________________________________________
dropout_87 (Dropout)         (None, 4480, 32)          0         
_________________________________________________________________
conv1d_55 (Conv1D)           (None, 4480, 32)          2080      
_________________________________________________________________
flatten_77 (Flatten)         (None, 143360)            0         
_________________________________________________________________
dense_239 (Dense)            (None, 256)               36700416  
_________________________________________________________________
dense_240 (Dense)            (None, 128)               32896     
_________________________________________________________________
dense_241 (Dense)            (None, 64)                8256      
_________________________________________________________________
dropout_88 (Dropout)         (None, 64)                0         
_________________________________________________________________
dense_242 (Dense)            (None, 5)                 325       
=================================================================
Total params: 36,785,093
Trainable params: 36,785,093
Non-trainable params: 0
_________________________________________________________________
None
Epoch 1/20





Likely memory error; Skipping
Param grid: 
{'c_model': 'm7', 'a_n_read': 35, 'b_n_batch': 96, 'n': 500}





Generating 500 batches of 35 reads each.










Benchmarking /cpu:0.
Param grid: 
{'c_model': 'm1', 'a_n_read': 35, 'b_n_batch': 128, 'n': 500}





_________________________________________________________________
Layer (type)                 Output Shape              Param #   
=================================================================
input_78 (InputLayer)        (None, 4480)              0         
_________________________________________________________________
embedding_78 (Embedding)     (None, 4480, 64)          16448     
_________________________________________________________________
flatten_78 (Flatten)         (None, 286720)            0         
_________________________________________________________________
dense_243 (Dense)            (None, 128)               36700288  
_________________________________________________________________
dropout_89 (Dropout)         (None, 128)               0         
_________________________________________________________________
dense_244 (Dense)            (None, 5)                 645       
=================================================================
Total params: 36,717,381
Trainable params: 36,717,381
Non-trainable params: 0
_________________________________________________________________
None
Epoch 1/20





Likely memory error; Skipping
Param grid: 
{'c_model': 'm1', 'a_n_read': 35, 'b_n_batch': 128, 'n': 500}





Generating 500 batches of 35 reads each.










Benchmarking /cpu:0.
Param grid: 
{'c_model': 'm2', 'a_n_read': 35, 'b_n_batch': 128, 'n': 500}





_________________________________________________________________
Layer (type)                 Output Shape              Param #   
=================================================================
input_79 (InputLayer)        (None, 4480)              0         
_________________________________________________________________
embedding_79 (Embedding)     (None, 4480, 64)          16448     
_________________________________________________________________
flatten_79 (Flatten)         (None, 286720)            0         
_________________________________________________________________
dense_245 (Dense)            (None, 128)               36700288  
_________________________________________________________________
dense_246 (Dense)            (None, 64)                8256      
_________________________________________________________________
dropout_90 (Dropout)         (None, 64)                0         
_________________________________________________________________
dense_247 (Dense)            (None, 5)                 325       
=================================================================
Total params: 36,725,317
Trainable params: 36,725,317
Non-trainable params: 0
_________________________________________________________________
None
Epoch 1/20





Likely memory error; Skipping
Param grid: 
{'c_model': 'm2', 'a_n_read': 35, 'b_n_batch': 128, 'n': 500}





Generating 500 batches of 35 reads each.










Benchmarking /cpu:0.
Param grid: 
{'c_model': 'm3', 'a_n_read': 35, 'b_n_batch': 128, 'n': 500}





_________________________________________________________________
Layer (type)                 Output Shape              Param #   
=================================================================
input_80 (InputLayer)        (None, 4480)              0         
_________________________________________________________________
embedding_80 (Embedding)     (None, 4480, 64)          16448     
_________________________________________________________________
flatten_80 (Flatten)         (None, 286720)            0         
_________________________________________________________________
dense_248 (Dense)            (None, 128)               36700288  
_________________________________________________________________
dense_249 (Dense)            (None, 64)                8256      
_________________________________________________________________
dense_250 (Dense)            (None, 32)                2080      
_________________________________________________________________
dropout_91 (Dropout)         (None, 32)                0         
_________________________________________________________________
dense_251 (Dense)            (None, 5)                 165       
=================================================================
Total params: 36,727,237
Trainable params: 36,727,237
Non-trainable params: 0
_________________________________________________________________
None
Epoch 1/20





Likely memory error; Skipping
Param grid: 
{'c_model': 'm3', 'a_n_read': 35, 'b_n_batch': 128, 'n': 500}





Generating 500 batches of 35 reads each.










Benchmarking /cpu:0.
Param grid: 
{'c_model': 'm4', 'a_n_read': 35, 'b_n_batch': 128, 'n': 500}





_________________________________________________________________
Layer (type)                 Output Shape              Param #   
=================================================================
input_81 (InputLayer)        (None, 4480)              0         
_________________________________________________________________
embedding_81 (Embedding)     (None, 4480, 128)         32896     
_________________________________________________________________
conv1d_56 (Conv1D)           (None, 4480, 32)          8224      
_________________________________________________________________
flatten_81 (Flatten)         (None, 143360)            0         
_________________________________________________________________
dense_252 (Dense)            (None, 256)               36700416  
_________________________________________________________________
dropout_92 (Dropout)         (None, 256)               0         
_________________________________________________________________
dense_253 (Dense)            (None, 5)                 1285      
=================================================================
Total params: 36,742,821
Trainable params: 36,742,821
Non-trainable params: 0
_________________________________________________________________
None
Epoch 1/20





Likely memory error; Skipping
Param grid: 
{'c_model': 'm4', 'a_n_read': 35, 'b_n_batch': 128, 'n': 500}





Generating 500 batches of 35 reads each.










Benchmarking /cpu:0.
Param grid: 
{'c_model': 'm5', 'a_n_read': 35, 'b_n_batch': 128, 'n': 500}





_________________________________________________________________
Layer (type)                 Output Shape              Param #   
=================================================================
input_82 (InputLayer)        (None, 4480)              0         
_________________________________________________________________
embedding_82 (Embedding)     (None, 4480, 128)         32896     
_________________________________________________________________
conv1d_57 (Conv1D)           (None, 4480, 32)          8224      
_________________________________________________________________
flatten_82 (Flatten)         (None, 143360)            0         
_________________________________________________________________
dense_254 (Dense)            (None, 256)               36700416  
_________________________________________________________________
dense_255 (Dense)            (None, 128)               32896     
_________________________________________________________________
dropout_93 (Dropout)         (None, 128)               0         
_________________________________________________________________
dense_256 (Dense)            (None, 5)                 645       
=================================================================
Total params: 36,775,077
Trainable params: 36,775,077
Non-trainable params: 0
_________________________________________________________________
None
Epoch 1/20





Likely memory error; Skipping
Param grid: 
{'c_model': 'm5', 'a_n_read': 35, 'b_n_batch': 128, 'n': 500}





Generating 500 batches of 35 reads each.










Benchmarking /cpu:0.
Param grid: 
{'c_model': 'm6', 'a_n_read': 35, 'b_n_batch': 128, 'n': 500}





_________________________________________________________________
Layer (type)                 Output Shape              Param #   
=================================================================
input_83 (InputLayer)        (None, 4480)              0         
_________________________________________________________________
embedding_83 (Embedding)     (None, 4480, 128)         32896     
_________________________________________________________________
conv1d_58 (Conv1D)           (None, 4480, 32)          8224      
_________________________________________________________________
flatten_83 (Flatten)         (None, 143360)            0         
_________________________________________________________________
dense_257 (Dense)            (None, 256)               36700416  
_________________________________________________________________
dense_258 (Dense)            (None, 128)               32896     
_________________________________________________________________
dense_259 (Dense)            (None, 64)                8256      
_________________________________________________________________
dropout_94 (Dropout)         (None, 64)                0         
_________________________________________________________________
dense_260 (Dense)            (None, 5)                 325       
=================================================================
Total params: 36,783,013
Trainable params: 36,783,013
Non-trainable params: 0
_________________________________________________________________
None
Epoch 1/20





Likely memory error; Skipping
Param grid: 
{'c_model': 'm6', 'a_n_read': 35, 'b_n_batch': 128, 'n': 500}





Generating 500 batches of 35 reads each.










Benchmarking /cpu:0.
Param grid: 
{'c_model': 'm7', 'a_n_read': 35, 'b_n_batch': 128, 'n': 500}





_________________________________________________________________
Layer (type)                 Output Shape              Param #   
=================================================================
input_84 (InputLayer)        (None, 4480)              0         
_________________________________________________________________
embedding_84 (Embedding)     (None, 4480, 128)         32896     
_________________________________________________________________
conv1d_59 (Conv1D)           (None, 4480, 32)          8224      
_________________________________________________________________
dropout_95 (Dropout)         (None, 4480, 32)          0         
_________________________________________________________________
conv1d_60 (Conv1D)           (None, 4480, 32)          2080      
_________________________________________________________________
flatten_84 (Flatten)         (None, 143360)            0         
_________________________________________________________________
dense_261 (Dense)            (None, 256)               36700416  
_________________________________________________________________
dense_262 (Dense)            (None, 128)               32896     
_________________________________________________________________
dense_263 (Dense)            (None, 64)                8256      
_________________________________________________________________
dropout_96 (Dropout)         (None, 64)                0         
_________________________________________________________________
dense_264 (Dense)            (None, 5)                 325       
=================================================================
Total params: 36,785,093
Trainable params: 36,785,093
Non-trainable params: 0
_________________________________________________________________
None
Epoch 1/20





Likely memory error; Skipping
Param grid: 
{'c_model': 'm7', 'a_n_read': 35, 'b_n_batch': 128, 'n': 500}





Generating 500 batches of 50 reads each.










Benchmarking /cpu:0.
Param grid: 
{'c_model': 'm1', 'a_n_read': 50, 'b_n_batch': 32, 'n': 500}





_________________________________________________________________
Layer (type)                 Output Shape              Param #   
=================================================================
input_85 (InputLayer)        (None, 6400)              0         
_________________________________________________________________
embedding_85 (Embedding)     (None, 6400, 64)          16448     
_________________________________________________________________
flatten_85 (Flatten)         (None, 409600)            0         
_________________________________________________________________
dense_265 (Dense)            (None, 128)               52428928  
_________________________________________________________________
dropout_97 (Dropout)         (None, 128)               0         
_________________________________________________________________
dense_266 (Dense)            (None, 5)                 645       
=================================================================
Total params: 52,446,021
Trainable params: 52,446,021
Non-trainable params: 0
_________________________________________________________________
None
Epoch 1/20





Likely memory error; Skipping
Param grid: 
{'c_model': 'm1', 'a_n_read': 50, 'b_n_batch': 32, 'n': 500}





Generating 500 batches of 50 reads each.










Benchmarking /cpu:0.
Param grid: 
{'c_model': 'm2', 'a_n_read': 50, 'b_n_batch': 32, 'n': 500}





_________________________________________________________________
Layer (type)                 Output Shape              Param #   
=================================================================
input_86 (InputLayer)        (None, 6400)              0         
_________________________________________________________________
embedding_86 (Embedding)     (None, 6400, 64)          16448     
_________________________________________________________________
flatten_86 (Flatten)         (None, 409600)            0         
_________________________________________________________________
dense_267 (Dense)            (None, 128)               52428928  
_________________________________________________________________
dense_268 (Dense)            (None, 64)                8256      
_________________________________________________________________
dropout_98 (Dropout)         (None, 64)                0         
_________________________________________________________________
dense_269 (Dense)            (None, 5)                 325       
=================================================================
Total params: 52,453,957
Trainable params: 52,453,957
Non-trainable params: 0
_________________________________________________________________
None
Epoch 1/20





Likely memory error; Skipping
Param grid: 
{'c_model': 'm2', 'a_n_read': 50, 'b_n_batch': 32, 'n': 500}





Generating 500 batches of 50 reads each.










Benchmarking /cpu:0.
Param grid: 
{'c_model': 'm3', 'a_n_read': 50, 'b_n_batch': 32, 'n': 500}





_________________________________________________________________
Layer (type)                 Output Shape              Param #   
=================================================================
input_87 (InputLayer)        (None, 6400)              0         
_________________________________________________________________
embedding_87 (Embedding)     (None, 6400, 64)          16448     
_________________________________________________________________
flatten_87 (Flatten)         (None, 409600)            0         
_________________________________________________________________
dense_270 (Dense)            (None, 128)               52428928  
_________________________________________________________________
dense_271 (Dense)            (None, 64)                8256      
_________________________________________________________________
dense_272 (Dense)            (None, 32)                2080      
_________________________________________________________________
dropout_99 (Dropout)         (None, 32)                0         
_________________________________________________________________
dense_273 (Dense)            (None, 5)                 165       
=================================================================
Total params: 52,455,877
Trainable params: 52,455,877
Non-trainable params: 0
_________________________________________________________________
None
Epoch 1/20





Likely memory error; Skipping
Param grid: 
{'c_model': 'm3', 'a_n_read': 50, 'b_n_batch': 32, 'n': 500}





Generating 500 batches of 50 reads each.










Benchmarking /cpu:0.
Param grid: 
{'c_model': 'm4', 'a_n_read': 50, 'b_n_batch': 32, 'n': 500}





_________________________________________________________________
Layer (type)                 Output Shape              Param #   
=================================================================
input_88 (InputLayer)        (None, 6400)              0         
_________________________________________________________________
embedding_88 (Embedding)     (None, 6400, 128)         32896     
_________________________________________________________________
conv1d_61 (Conv1D)           (None, 6400, 32)          8224      
_________________________________________________________________
flatten_88 (Flatten)         (None, 204800)            0         
_________________________________________________________________
dense_274 (Dense)            (None, 256)               52429056  
_________________________________________________________________
dropout_100 (Dropout)        (None, 256)               0         
_________________________________________________________________
dense_275 (Dense)            (None, 5)                 1285      
=================================================================
Total params: 52,471,461
Trainable params: 52,471,461
Non-trainable params: 0
_________________________________________________________________
None
Epoch 1/20





Likely memory error; Skipping
Param grid: 
{'c_model': 'm4', 'a_n_read': 50, 'b_n_batch': 32, 'n': 500}





Generating 500 batches of 50 reads each.










Benchmarking /cpu:0.
Param grid: 
{'c_model': 'm5', 'a_n_read': 50, 'b_n_batch': 32, 'n': 500}





_________________________________________________________________
Layer (type)                 Output Shape              Param #   
=================================================================
input_89 (InputLayer)        (None, 6400)              0         
_________________________________________________________________
embedding_89 (Embedding)     (None, 6400, 128)         32896     
_________________________________________________________________
conv1d_62 (Conv1D)           (None, 6400, 32)          8224      
_________________________________________________________________
flatten_89 (Flatten)         (None, 204800)            0         
_________________________________________________________________
dense_276 (Dense)            (None, 256)               52429056  
_________________________________________________________________
dense_277 (Dense)            (None, 128)               32896     
_________________________________________________________________
dropout_101 (Dropout)        (None, 128)               0         
_________________________________________________________________
dense_278 (Dense)            (None, 5)                 645       
=================================================================
Total params: 52,503,717
Trainable params: 52,503,717
Non-trainable params: 0
_________________________________________________________________
None
Epoch 1/20





Likely memory error; Skipping
Param grid: 
{'c_model': 'm5', 'a_n_read': 50, 'b_n_batch': 32, 'n': 500}





Generating 500 batches of 50 reads each.










Benchmarking /cpu:0.
Param grid: 
{'c_model': 'm6', 'a_n_read': 50, 'b_n_batch': 32, 'n': 500}





_________________________________________________________________
Layer (type)                 Output Shape              Param #   
=================================================================
input_90 (InputLayer)        (None, 6400)              0         
_________________________________________________________________
embedding_90 (Embedding)     (None, 6400, 128)         32896     
_________________________________________________________________
conv1d_63 (Conv1D)           (None, 6400, 32)          8224      
_________________________________________________________________
flatten_90 (Flatten)         (None, 204800)            0         
_________________________________________________________________
dense_279 (Dense)            (None, 256)               52429056  
_________________________________________________________________
dense_280 (Dense)            (None, 128)               32896     
_________________________________________________________________
dense_281 (Dense)            (None, 64)                8256      
_________________________________________________________________
dropout_102 (Dropout)        (None, 64)                0         
_________________________________________________________________
dense_282 (Dense)            (None, 5)                 325       
=================================================================
Total params: 52,511,653
Trainable params: 52,511,653
Non-trainable params: 0
_________________________________________________________________
None
Epoch 1/20





Likely memory error; Skipping
Param grid: 
{'c_model': 'm6', 'a_n_read': 50, 'b_n_batch': 32, 'n': 500}





Generating 500 batches of 50 reads each.










Benchmarking /cpu:0.
Param grid: 
{'c_model': 'm7', 'a_n_read': 50, 'b_n_batch': 32, 'n': 500}





_________________________________________________________________
Layer (type)                 Output Shape              Param #   
=================================================================
input_91 (InputLayer)        (None, 6400)              0         
_________________________________________________________________
embedding_91 (Embedding)     (None, 6400, 128)         32896     
_________________________________________________________________
conv1d_64 (Conv1D)           (None, 6400, 32)          8224      
_________________________________________________________________
dropout_103 (Dropout)        (None, 6400, 32)          0         
_________________________________________________________________
conv1d_65 (Conv1D)           (None, 6400, 32)          2080      
_________________________________________________________________
flatten_91 (Flatten)         (None, 204800)            0         
_________________________________________________________________
dense_283 (Dense)            (None, 256)               52429056  
_________________________________________________________________
dense_284 (Dense)            (None, 128)               32896     
_________________________________________________________________
dense_285 (Dense)            (None, 64)                8256      
_________________________________________________________________
dropout_104 (Dropout)        (None, 64)                0         
_________________________________________________________________
dense_286 (Dense)            (None, 5)                 325       
=================================================================
Total params: 52,513,733
Trainable params: 52,513,733
Non-trainable params: 0
_________________________________________________________________
None
Epoch 1/20





Likely memory error; Skipping
Param grid: 
{'c_model': 'm7', 'a_n_read': 50, 'b_n_batch': 32, 'n': 500}





Generating 500 batches of 50 reads each.










Benchmarking /cpu:0.
Param grid: 
{'c_model': 'm1', 'a_n_read': 50, 'b_n_batch': 64, 'n': 500}





_________________________________________________________________
Layer (type)                 Output Shape              Param #   
=================================================================
input_92 (InputLayer)        (None, 6400)              0         
_________________________________________________________________
embedding_92 (Embedding)     (None, 6400, 64)          16448     
_________________________________________________________________
flatten_92 (Flatten)         (None, 409600)            0         
_________________________________________________________________
dense_287 (Dense)            (None, 128)               52428928  
_________________________________________________________________
dropout_105 (Dropout)        (None, 128)               0         
_________________________________________________________________
dense_288 (Dense)            (None, 5)                 645       
=================================================================
Total params: 52,446,021
Trainable params: 52,446,021
Non-trainable params: 0
_________________________________________________________________
None
Epoch 1/20





Likely memory error; Skipping
Param grid: 
{'c_model': 'm1', 'a_n_read': 50, 'b_n_batch': 64, 'n': 500}





Generating 500 batches of 50 reads each.










Benchmarking /cpu:0.
Param grid: 
{'c_model': 'm2', 'a_n_read': 50, 'b_n_batch': 64, 'n': 500}





_________________________________________________________________
Layer (type)                 Output Shape              Param #   
=================================================================
input_93 (InputLayer)        (None, 6400)              0         
_________________________________________________________________
embedding_93 (Embedding)     (None, 6400, 64)          16448     
_________________________________________________________________
flatten_93 (Flatten)         (None, 409600)            0         
_________________________________________________________________
dense_289 (Dense)            (None, 128)               52428928  
_________________________________________________________________
dense_290 (Dense)            (None, 64)                8256      
_________________________________________________________________
dropout_106 (Dropout)        (None, 64)                0         
_________________________________________________________________
dense_291 (Dense)            (None, 5)                 325       
=================================================================
Total params: 52,453,957
Trainable params: 52,453,957
Non-trainable params: 0
_________________________________________________________________
None
Epoch 1/20





Likely memory error; Skipping
Param grid: 
{'c_model': 'm2', 'a_n_read': 50, 'b_n_batch': 64, 'n': 500}





Generating 500 batches of 50 reads each.










Benchmarking /cpu:0.
Param grid: 
{'c_model': 'm3', 'a_n_read': 50, 'b_n_batch': 64, 'n': 500}





_________________________________________________________________
Layer (type)                 Output Shape              Param #   
=================================================================
input_94 (InputLayer)        (None, 6400)              0         
_________________________________________________________________
embedding_94 (Embedding)     (None, 6400, 64)          16448     
_________________________________________________________________
flatten_94 (Flatten)         (None, 409600)            0         
_________________________________________________________________
dense_292 (Dense)            (None, 128)               52428928  
_________________________________________________________________
dense_293 (Dense)            (None, 64)                8256      
_________________________________________________________________
dense_294 (Dense)            (None, 32)                2080      
_________________________________________________________________
dropout_107 (Dropout)        (None, 32)                0         
_________________________________________________________________
dense_295 (Dense)            (None, 5)                 165       
=================================================================
Total params: 52,455,877
Trainable params: 52,455,877
Non-trainable params: 0
_________________________________________________________________
None
Epoch 1/20





Likely memory error; Skipping
Param grid: 
{'c_model': 'm3', 'a_n_read': 50, 'b_n_batch': 64, 'n': 500}





Generating 500 batches of 50 reads each.










Benchmarking /cpu:0.
Param grid: 
{'c_model': 'm4', 'a_n_read': 50, 'b_n_batch': 64, 'n': 500}





_________________________________________________________________
Layer (type)                 Output Shape              Param #   
=================================================================
input_95 (InputLayer)        (None, 6400)              0         
_________________________________________________________________
embedding_95 (Embedding)     (None, 6400, 128)         32896     
_________________________________________________________________
conv1d_66 (Conv1D)           (None, 6400, 32)          8224      
_________________________________________________________________
flatten_95 (Flatten)         (None, 204800)            0         
_________________________________________________________________
dense_296 (Dense)            (None, 256)               52429056  
_________________________________________________________________
dropout_108 (Dropout)        (None, 256)               0         
_________________________________________________________________
dense_297 (Dense)            (None, 5)                 1285      
=================================================================
Total params: 52,471,461
Trainable params: 52,471,461
Non-trainable params: 0
_________________________________________________________________
None
Epoch 1/20





Likely memory error; Skipping
Param grid: 
{'c_model': 'm4', 'a_n_read': 50, 'b_n_batch': 64, 'n': 500}





Generating 500 batches of 50 reads each.










Benchmarking /cpu:0.
Param grid: 
{'c_model': 'm5', 'a_n_read': 50, 'b_n_batch': 64, 'n': 500}





_________________________________________________________________
Layer (type)                 Output Shape              Param #   
=================================================================
input_96 (InputLayer)        (None, 6400)              0         
_________________________________________________________________
embedding_96 (Embedding)     (None, 6400, 128)         32896     
_________________________________________________________________
conv1d_67 (Conv1D)           (None, 6400, 32)          8224      
_________________________________________________________________
flatten_96 (Flatten)         (None, 204800)            0         
_________________________________________________________________
dense_298 (Dense)            (None, 256)               52429056  
_________________________________________________________________
dense_299 (Dense)            (None, 128)               32896     
_________________________________________________________________
dropout_109 (Dropout)        (None, 128)               0         
_________________________________________________________________
dense_300 (Dense)            (None, 5)                 645       
=================================================================
Total params: 52,503,717
Trainable params: 52,503,717
Non-trainable params: 0
_________________________________________________________________
None
Epoch 1/20





Likely memory error; Skipping
Param grid: 
{'c_model': 'm5', 'a_n_read': 50, 'b_n_batch': 64, 'n': 500}





Generating 500 batches of 50 reads each.










Benchmarking /cpu:0.
Param grid: 
{'c_model': 'm6', 'a_n_read': 50, 'b_n_batch': 64, 'n': 500}





_________________________________________________________________
Layer (type)                 Output Shape              Param #   
=================================================================
input_97 (InputLayer)        (None, 6400)              0         
_________________________________________________________________
embedding_97 (Embedding)     (None, 6400, 128)         32896     
_________________________________________________________________
conv1d_68 (Conv1D)           (None, 6400, 32)          8224      
_________________________________________________________________
flatten_97 (Flatten)         (None, 204800)            0         
_________________________________________________________________
dense_301 (Dense)            (None, 256)               52429056  
_________________________________________________________________
dense_302 (Dense)            (None, 128)               32896     
_________________________________________________________________
dense_303 (Dense)            (None, 64)                8256      
_________________________________________________________________
dropout_110 (Dropout)        (None, 64)                0         
_________________________________________________________________
dense_304 (Dense)            (None, 5)                 325       
=================================================================
Total params: 52,511,653
Trainable params: 52,511,653
Non-trainable params: 0
_________________________________________________________________
None
Epoch 1/20





Likely memory error; Skipping
Param grid: 
{'c_model': 'm6', 'a_n_read': 50, 'b_n_batch': 64, 'n': 500}





Generating 500 batches of 50 reads each.










Benchmarking /cpu:0.
Param grid: 
{'c_model': 'm7', 'a_n_read': 50, 'b_n_batch': 64, 'n': 500}





_________________________________________________________________
Layer (type)                 Output Shape              Param #   
=================================================================
input_98 (InputLayer)        (None, 6400)              0         
_________________________________________________________________
embedding_98 (Embedding)     (None, 6400, 128)         32896     
_________________________________________________________________
conv1d_69 (Conv1D)           (None, 6400, 32)          8224      
_________________________________________________________________
dropout_111 (Dropout)        (None, 6400, 32)          0         
_________________________________________________________________
conv1d_70 (Conv1D)           (None, 6400, 32)          2080      
_________________________________________________________________
flatten_98 (Flatten)         (None, 204800)            0         
_________________________________________________________________
dense_305 (Dense)            (None, 256)               52429056  
_________________________________________________________________
dense_306 (Dense)            (None, 128)               32896     
_________________________________________________________________
dense_307 (Dense)            (None, 64)                8256      
_________________________________________________________________
dropout_112 (Dropout)        (None, 64)                0         
_________________________________________________________________
dense_308 (Dense)            (None, 5)                 325       
=================================================================
Total params: 52,513,733
Trainable params: 52,513,733
Non-trainable params: 0
_________________________________________________________________
None
Epoch 1/20





Likely memory error; Skipping
Param grid: 
{'c_model': 'm7', 'a_n_read': 50, 'b_n_batch': 64, 'n': 500}





Generating 500 batches of 50 reads each.










Benchmarking /cpu:0.
Param grid: 
{'c_model': 'm1', 'a_n_read': 50, 'b_n_batch': 96, 'n': 500}





_________________________________________________________________
Layer (type)                 Output Shape              Param #   
=================================================================
input_99 (InputLayer)        (None, 6400)              0         
_________________________________________________________________
embedding_99 (Embedding)     (None, 6400, 64)          16448     
_________________________________________________________________
flatten_99 (Flatten)         (None, 409600)            0         
_________________________________________________________________
dense_309 (Dense)            (None, 128)               52428928  
_________________________________________________________________
dropout_113 (Dropout)        (None, 128)               0         
_________________________________________________________________
dense_310 (Dense)            (None, 5)                 645       
=================================================================
Total params: 52,446,021
Trainable params: 52,446,021
Non-trainable params: 0
_________________________________________________________________
None
Epoch 1/20





Likely memory error; Skipping
Param grid: 
{'c_model': 'm1', 'a_n_read': 50, 'b_n_batch': 96, 'n': 500}





Generating 500 batches of 50 reads each.










Benchmarking /cpu:0.
Param grid: 
{'c_model': 'm2', 'a_n_read': 50, 'b_n_batch': 96, 'n': 500}





_________________________________________________________________
Layer (type)                 Output Shape              Param #   
=================================================================
input_100 (InputLayer)       (None, 6400)              0         
_________________________________________________________________
embedding_100 (Embedding)    (None, 6400, 64)          16448     
_________________________________________________________________
flatten_100 (Flatten)        (None, 409600)            0         
_________________________________________________________________
dense_311 (Dense)            (None, 128)               52428928  
_________________________________________________________________
dense_312 (Dense)            (None, 64)                8256      
_________________________________________________________________
dropout_114 (Dropout)        (None, 64)                0         
_________________________________________________________________
dense_313 (Dense)            (None, 5)                 325       
=================================================================
Total params: 52,453,957
Trainable params: 52,453,957
Non-trainable params: 0
_________________________________________________________________
None
Epoch 1/20





Likely memory error; Skipping
Param grid: 
{'c_model': 'm2', 'a_n_read': 50, 'b_n_batch': 96, 'n': 500}





Generating 500 batches of 50 reads each.










Benchmarking /cpu:0.
Param grid: 
{'c_model': 'm3', 'a_n_read': 50, 'b_n_batch': 96, 'n': 500}





_________________________________________________________________
Layer (type)                 Output Shape              Param #   
=================================================================
input_101 (InputLayer)       (None, 6400)              0         
_________________________________________________________________
embedding_101 (Embedding)    (None, 6400, 64)          16448     
_________________________________________________________________
flatten_101 (Flatten)        (None, 409600)            0         
_________________________________________________________________
dense_314 (Dense)            (None, 128)               52428928  
_________________________________________________________________
dense_315 (Dense)            (None, 64)                8256      
_________________________________________________________________
dense_316 (Dense)            (None, 32)                2080      
_________________________________________________________________
dropout_115 (Dropout)        (None, 32)                0         
_________________________________________________________________
dense_317 (Dense)            (None, 5)                 165       
=================================================================
Total params: 52,455,877
Trainable params: 52,455,877
Non-trainable params: 0
_________________________________________________________________
None
Epoch 1/20





Likely memory error; Skipping
Param grid: 
{'c_model': 'm3', 'a_n_read': 50, 'b_n_batch': 96, 'n': 500}





Generating 500 batches of 50 reads each.










Benchmarking /cpu:0.
Param grid: 
{'c_model': 'm4', 'a_n_read': 50, 'b_n_batch': 96, 'n': 500}





_________________________________________________________________
Layer (type)                 Output Shape              Param #   
=================================================================
input_102 (InputLayer)       (None, 6400)              0         
_________________________________________________________________
embedding_102 (Embedding)    (None, 6400, 128)         32896     
_________________________________________________________________
conv1d_71 (Conv1D)           (None, 6400, 32)          8224      
_________________________________________________________________
flatten_102 (Flatten)        (None, 204800)            0         
_________________________________________________________________
dense_318 (Dense)            (None, 256)               52429056  
_________________________________________________________________
dropout_116 (Dropout)        (None, 256)               0         
_________________________________________________________________
dense_319 (Dense)            (None, 5)                 1285      
=================================================================
Total params: 52,471,461
Trainable params: 52,471,461
Non-trainable params: 0
_________________________________________________________________
None
Epoch 1/20





Likely memory error; Skipping
Param grid: 
{'c_model': 'm4', 'a_n_read': 50, 'b_n_batch': 96, 'n': 500}





Generating 500 batches of 50 reads each.










Benchmarking /cpu:0.
Param grid: 
{'c_model': 'm5', 'a_n_read': 50, 'b_n_batch': 96, 'n': 500}





_________________________________________________________________
Layer (type)                 Output Shape              Param #   
=================================================================
input_103 (InputLayer)       (None, 6400)              0         
_________________________________________________________________
embedding_103 (Embedding)    (None, 6400, 128)         32896     
_________________________________________________________________
conv1d_72 (Conv1D)           (None, 6400, 32)          8224      
_________________________________________________________________
flatten_103 (Flatten)        (None, 204800)            0         
_________________________________________________________________
dense_320 (Dense)            (None, 256)               52429056  
_________________________________________________________________
dense_321 (Dense)            (None, 128)               32896     
_________________________________________________________________
dropout_117 (Dropout)        (None, 128)               0         
_________________________________________________________________
dense_322 (Dense)            (None, 5)                 645       
=================================================================
Total params: 52,503,717
Trainable params: 52,503,717
Non-trainable params: 0
_________________________________________________________________
None
Epoch 1/20





Likely memory error; Skipping
Param grid: 
{'c_model': 'm5', 'a_n_read': 50, 'b_n_batch': 96, 'n': 500}





Generating 500 batches of 50 reads each.










Benchmarking /cpu:0.
Param grid: 
{'c_model': 'm6', 'a_n_read': 50, 'b_n_batch': 96, 'n': 500}





_________________________________________________________________
Layer (type)                 Output Shape              Param #   
=================================================================
input_104 (InputLayer)       (None, 6400)              0         
_________________________________________________________________
embedding_104 (Embedding)    (None, 6400, 128)         32896     
_________________________________________________________________
conv1d_73 (Conv1D)           (None, 6400, 32)          8224      
_________________________________________________________________
flatten_104 (Flatten)        (None, 204800)            0         
_________________________________________________________________
dense_323 (Dense)            (None, 256)               52429056  
_________________________________________________________________
dense_324 (Dense)            (None, 128)               32896     
_________________________________________________________________
dense_325 (Dense)            (None, 64)                8256      
_________________________________________________________________
dropout_118 (Dropout)        (None, 64)                0         
_________________________________________________________________
dense_326 (Dense)            (None, 5)                 325       
=================================================================
Total params: 52,511,653
Trainable params: 52,511,653
Non-trainable params: 0
_________________________________________________________________
None
Epoch 1/20





Likely memory error; Skipping
Param grid: 
{'c_model': 'm6', 'a_n_read': 50, 'b_n_batch': 96, 'n': 500}





Generating 500 batches of 50 reads each.










Benchmarking /cpu:0.
Param grid: 
{'c_model': 'm7', 'a_n_read': 50, 'b_n_batch': 96, 'n': 500}





_________________________________________________________________
Layer (type)                 Output Shape              Param #   
=================================================================
input_105 (InputLayer)       (None, 6400)              0         
_________________________________________________________________
embedding_105 (Embedding)    (None, 6400, 128)         32896     
_________________________________________________________________
conv1d_74 (Conv1D)           (None, 6400, 32)          8224      
_________________________________________________________________
dropout_119 (Dropout)        (None, 6400, 32)          0         
_________________________________________________________________
conv1d_75 (Conv1D)           (None, 6400, 32)          2080      
_________________________________________________________________
flatten_105 (Flatten)        (None, 204800)            0         
_________________________________________________________________
dense_327 (Dense)            (None, 256)               52429056  
_________________________________________________________________
dense_328 (Dense)            (None, 128)               32896     
_________________________________________________________________
dense_329 (Dense)            (None, 64)                8256      
_________________________________________________________________
dropout_120 (Dropout)        (None, 64)                0         
_________________________________________________________________
dense_330 (Dense)            (None, 5)                 325       
=================================================================
Total params: 52,513,733
Trainable params: 52,513,733
Non-trainable params: 0
_________________________________________________________________
None
Epoch 1/20





Likely memory error; Skipping
Param grid: 
{'c_model': 'm7', 'a_n_read': 50, 'b_n_batch': 96, 'n': 500}





Generating 500 batches of 50 reads each.










Benchmarking /cpu:0.
Param grid: 
{'c_model': 'm1', 'a_n_read': 50, 'b_n_batch': 128, 'n': 500}





_________________________________________________________________
Layer (type)                 Output Shape              Param #   
=================================================================
input_106 (InputLayer)       (None, 6400)              0         
_________________________________________________________________
embedding_106 (Embedding)    (None, 6400, 64)          16448     
_________________________________________________________________
flatten_106 (Flatten)        (None, 409600)            0         
_________________________________________________________________
dense_331 (Dense)            (None, 128)               52428928  
_________________________________________________________________
dropout_121 (Dropout)        (None, 128)               0         
_________________________________________________________________
dense_332 (Dense)            (None, 5)                 645       
=================================================================
Total params: 52,446,021
Trainable params: 52,446,021
Non-trainable params: 0
_________________________________________________________________
None
Epoch 1/20





Likely memory error; Skipping
Param grid: 
{'c_model': 'm1', 'a_n_read': 50, 'b_n_batch': 128, 'n': 500}





Generating 500 batches of 50 reads each.










Benchmarking /cpu:0.
Param grid: 
{'c_model': 'm2', 'a_n_read': 50, 'b_n_batch': 128, 'n': 500}





_________________________________________________________________
Layer (type)                 Output Shape              Param #   
=================================================================
input_107 (InputLayer)       (None, 6400)              0         
_________________________________________________________________
embedding_107 (Embedding)    (None, 6400, 64)          16448     
_________________________________________________________________
flatten_107 (Flatten)        (None, 409600)            0         
_________________________________________________________________
dense_333 (Dense)            (None, 128)               52428928  
_________________________________________________________________
dense_334 (Dense)            (None, 64)                8256      
_________________________________________________________________
dropout_122 (Dropout)        (None, 64)                0         
_________________________________________________________________
dense_335 (Dense)            (None, 5)                 325       
=================================================================
Total params: 52,453,957
Trainable params: 52,453,957
Non-trainable params: 0
_________________________________________________________________
None
Epoch 1/20





Likely memory error; Skipping
Param grid: 
{'c_model': 'm2', 'a_n_read': 50, 'b_n_batch': 128, 'n': 500}





Generating 500 batches of 50 reads each.










Benchmarking /cpu:0.
Param grid: 
{'c_model': 'm3', 'a_n_read': 50, 'b_n_batch': 128, 'n': 500}





_________________________________________________________________
Layer (type)                 Output Shape              Param #   
=================================================================
input_108 (InputLayer)       (None, 6400)              0         
_________________________________________________________________
embedding_108 (Embedding)    (None, 6400, 64)          16448     
_________________________________________________________________
flatten_108 (Flatten)        (None, 409600)            0         
_________________________________________________________________
dense_336 (Dense)            (None, 128)               52428928  
_________________________________________________________________
dense_337 (Dense)            (None, 64)                8256      
_________________________________________________________________
dense_338 (Dense)            (None, 32)                2080      
_________________________________________________________________
dropout_123 (Dropout)        (None, 32)                0         
_________________________________________________________________
dense_339 (Dense)            (None, 5)                 165       
=================================================================
Total params: 52,455,877
Trainable params: 52,455,877
Non-trainable params: 0
_________________________________________________________________
None
Epoch 1/20





Likely memory error; Skipping
Param grid: 
{'c_model': 'm3', 'a_n_read': 50, 'b_n_batch': 128, 'n': 500}





Generating 500 batches of 50 reads each.










Benchmarking /cpu:0.
Param grid: 
{'c_model': 'm4', 'a_n_read': 50, 'b_n_batch': 128, 'n': 500}





_________________________________________________________________
Layer (type)                 Output Shape              Param #   
=================================================================
input_109 (InputLayer)       (None, 6400)              0         
_________________________________________________________________
embedding_109 (Embedding)    (None, 6400, 128)         32896     
_________________________________________________________________
conv1d_76 (Conv1D)           (None, 6400, 32)          8224      
_________________________________________________________________
flatten_109 (Flatten)        (None, 204800)            0         
_________________________________________________________________
dense_340 (Dense)            (None, 256)               52429056  
_________________________________________________________________
dropout_124 (Dropout)        (None, 256)               0         
_________________________________________________________________
dense_341 (Dense)            (None, 5)                 1285      
=================================================================
Total params: 52,471,461
Trainable params: 52,471,461
Non-trainable params: 0
_________________________________________________________________
None
Epoch 1/20





Likely memory error; Skipping
Param grid: 
{'c_model': 'm4', 'a_n_read': 50, 'b_n_batch': 128, 'n': 500}





Generating 500 batches of 50 reads each.










Benchmarking /cpu:0.
Param grid: 
{'c_model': 'm5', 'a_n_read': 50, 'b_n_batch': 128, 'n': 500}





_________________________________________________________________
Layer (type)                 Output Shape              Param #   
=================================================================
input_110 (InputLayer)       (None, 6400)              0         
_________________________________________________________________
embedding_110 (Embedding)    (None, 6400, 128)         32896     
_________________________________________________________________
conv1d_77 (Conv1D)           (None, 6400, 32)          8224      
_________________________________________________________________
flatten_110 (Flatten)        (None, 204800)            0         
_________________________________________________________________
dense_342 (Dense)            (None, 256)               52429056  
_________________________________________________________________
dense_343 (Dense)            (None, 128)               32896     
_________________________________________________________________
dropout_125 (Dropout)        (None, 128)               0         
_________________________________________________________________
dense_344 (Dense)            (None, 5)                 645       
=================================================================
Total params: 52,503,717
Trainable params: 52,503,717
Non-trainable params: 0
_________________________________________________________________
None
Epoch 1/20





Likely memory error; Skipping
Param grid: 
{'c_model': 'm5', 'a_n_read': 50, 'b_n_batch': 128, 'n': 500}





Generating 500 batches of 50 reads each.










Benchmarking /cpu:0.
Param grid: 
{'c_model': 'm6', 'a_n_read': 50, 'b_n_batch': 128, 'n': 500}





_________________________________________________________________
Layer (type)                 Output Shape              Param #   
=================================================================
input_111 (InputLayer)       (None, 6400)              0         
_________________________________________________________________
embedding_111 (Embedding)    (None, 6400, 128)         32896     
_________________________________________________________________
conv1d_78 (Conv1D)           (None, 6400, 32)          8224      
_________________________________________________________________
flatten_111 (Flatten)        (None, 204800)            0         
_________________________________________________________________
dense_345 (Dense)            (None, 256)               52429056  
_________________________________________________________________
dense_346 (Dense)            (None, 128)               32896     
_________________________________________________________________
dense_347 (Dense)            (None, 64)                8256      
_________________________________________________________________
dropout_126 (Dropout)        (None, 64)                0         
_________________________________________________________________
dense_348 (Dense)            (None, 5)                 325       
=================================================================
Total params: 52,511,653
Trainable params: 52,511,653
Non-trainable params: 0
_________________________________________________________________
None
Epoch 1/20





Likely memory error; Skipping
Param grid: 
{'c_model': 'm6', 'a_n_read': 50, 'b_n_batch': 128, 'n': 500}





Generating 500 batches of 50 reads each.










Benchmarking /cpu:0.
Param grid: 
{'c_model': 'm7', 'a_n_read': 50, 'b_n_batch': 128, 'n': 500}





_________________________________________________________________
Layer (type)                 Output Shape              Param #   
=================================================================
input_112 (InputLayer)       (None, 6400)              0         
_________________________________________________________________
embedding_112 (Embedding)    (None, 6400, 128)         32896     
_________________________________________________________________
conv1d_79 (Conv1D)           (None, 6400, 32)          8224      
_________________________________________________________________
dropout_127 (Dropout)        (None, 6400, 32)          0         
_________________________________________________________________
conv1d_80 (Conv1D)           (None, 6400, 32)          2080      
_________________________________________________________________
flatten_112 (Flatten)        (None, 204800)            0         
_________________________________________________________________
dense_349 (Dense)            (None, 256)               52429056  
_________________________________________________________________
dense_350 (Dense)            (None, 128)               32896     
_________________________________________________________________
dense_351 (Dense)            (None, 64)                8256      
_________________________________________________________________
dropout_128 (Dropout)        (None, 64)                0         
_________________________________________________________________
dense_352 (Dense)            (None, 5)                 325       
=================================================================
Total params: 52,513,733
Trainable params: 52,513,733
Non-trainable params: 0
_________________________________________________________________
None
Epoch 1/20





Likely memory error; Skipping
Param grid: 
{'c_model': 'm7', 'a_n_read': 50, 'b_n_batch': 128, 'n': 500}
