Generating 500 batches of 40 reads each.
Benchmarking /gpu:0.
Param grid: 
{'c_model': 'm1', 'b_n_batch': 128, 'a_n_read': 40, 'n': 500}
_________________________________________________________________
Layer (type)                 Output Shape              Param #   
=================================================================
input_1 (InputLayer)         (None, 5120)              0         
_________________________________________________________________
embedding_1 (Embedding)      (None, 5120, 128)         32896     
_________________________________________________________________
flatten_1 (Flatten)          (None, 655360)            0         
_________________________________________________________________
dense_1 (Dense)              (None, 128)               83886208  
_________________________________________________________________
dropout_1 (Dropout)          (None, 128)               0         
_________________________________________________________________
dense_2 (Dense)              (None, 5)                 645       
=================================================================
Total params: 83,919,749
Trainable params: 83,919,749
Non-trainable params: 0
_________________________________________________________________
None
Epoch 1/20

128/500 [======>.......................] - ETA: 8s - loss: 1.6172
256/500 [==============>...............] - ETA: 2s - loss: 1.5770
384/500 [======================>.......] - ETA: 0s - loss: 1.5522
…
256/500 [==============>...............] - ETA: 3s - loss: 0.7013
384/500 [======================>.......] - ETA: 1s - loss: 0.6890
500/500 [==============================] - 8s 16ms/step - loss: 0.6923
/gpu:0: 0.1794m (0.5383s per epoch).
/cpu:0: 2.7102m (8.1307s per epoch).

Generating 500 batches of 40 reads each.
Benchmarking /gpu:0.
Param grid: 
{'c_model': 'm2', 'b_n_batch': 128, 'a_n_read': 40, 'n': 500}
_________________________________________________________________
Layer (type)                 Output Shape              Param #   
=================================================================
input_1 (InputLayer)         (None, 5120)              0         
_________________________________________________________________
embedding_1 (Embedding)      (None, 5120, 128)         32896     
_________________________________________________________________
flatten_1 (Flatten)          (None, 655360)            0         
_________________________________________________________________
dense_1 (Dense)              (None, 128)               83886208  
_________________________________________________________________
dense_2 (Dense)              (None, 64)                8256      
_________________________________________________________________
dropout_1 (Dropout)          (None, 64)                0         
_________________________________________________________________
dense_3 (Dense)              (None, 5)                 325       
=================================================================
Total params: 83,927,685
Trainable params: 83,927,685
Non-trainable params: 0
_________________________________________________________________
None
Epoch 1/20

128/500 [======>.......................] - ETA: 2s - loss: 1.6104
256/500 [==============>...............] - ETA: 1s - loss: 1.5974
384/500 [======================>.......] - ETA: 0s - loss: 1.5908
…
256/500 [==============>...............] - ETA: 3s - loss: 0.7787
384/500 [======================>.......] - ETA: 1s - loss: 0.7942
500/500 [==============================] - 8s 16ms/step - loss: 0.7855
/gpu:0: 0.1477m (0.4432s per epoch).
/cpu:0: 2.6888m (8.0663s per epoch).

Generating 500 batches of 40 reads each.
Benchmarking /gpu:0.
Param grid: 
{'c_model': 'm3', 'b_n_batch': 128, 'a_n_read': 40, 'n': 500}
_________________________________________________________________
Layer (type)                 Output Shape              Param #   
=================================================================
input_1 (InputLayer)         (None, 5120)              0         
_________________________________________________________________
embedding_1 (Embedding)      (None, 5120, 128)         32896     
_________________________________________________________________
flatten_1 (Flatten)          (None, 655360)            0         
_________________________________________________________________
dense_1 (Dense)              (None, 128)               83886208  
_________________________________________________________________
dense_2 (Dense)              (None, 64)                8256      
_________________________________________________________________
dense_3 (Dense)              (None, 32)                2080      
_________________________________________________________________
dropout_1 (Dropout)          (None, 32)                0         
_________________________________________________________________
dense_4 (Dense)              (None, 5)                 165       
=================================================================
Total params: 83,929,605
Trainable params: 83,929,605
Non-trainable params: 0
_________________________________________________________________
None
Epoch 1/20

128/500 [======>.......................] - ETA: 2s - loss: 1.6086
256/500 [==============>...............] - ETA: 1s - loss: 1.6057
384/500 [======================>.......] - ETA: 0s - loss: 1.6012
…
256/500 [==============>...............] - ETA: 3s - loss: 1.0345
384/500 [======================>.......] - ETA: 1s - loss: 1.0412
500/500 [==============================] - 8s 16ms/step - loss: 1.0230
/gpu:0: 0.1489m (0.4467s per epoch).
/cpu:0: 2.6825m (8.0474s per epoch).

Generating 500 batches of 40 reads each.
Benchmarking /gpu:0.
Param grid: 
{'c_model': 'm4', 'b_n_batch': 128, 'a_n_read': 40, 'n': 500}
_________________________________________________________________
Layer (type)                 Output Shape              Param #   
=================================================================
input_1 (InputLayer)         (None, 5120)              0         
_________________________________________________________________
embedding_1 (Embedding)      (None, 5120, 128)         32896     
_________________________________________________________________
conv1d_1 (Conv1D)            (None, 5120, 32)          12320     
_________________________________________________________________
flatten_1 (Flatten)          (None, 163840)            0         
_________________________________________________________________
dense_1 (Dense)              (None, 128)               20971648  
_________________________________________________________________
dropout_1 (Dropout)          (None, 128)               0         
_________________________________________________________________
dense_2 (Dense)              (None, 5)                 645       
=================================================================
Total params: 21,017,509
Trainable params: 21,017,509
Non-trainable params: 0
_________________________________________________________________
None
Epoch 1/20

128/500 [======>.......................] - ETA: 4s - loss: 1.6038
256/500 [==============>...............] - ETA: 1s - loss: 1.5939
384/500 [======================>.......] - ETA: 0s - loss: 1.5841
…
256/500 [==============>...............] - ETA: 3s - loss: 1.1551
384/500 [======================>.......] - ETA: 1s - loss: 1.1708
500/500 [==============================] - 7s 13ms/step - loss: 1.1676
/gpu:0: 0.1418m (0.4255s per epoch).
/cpu:0: 2.2569m (6.7706s per epoch).

Generating 500 batches of 40 reads each.
Benchmarking /gpu:0.
Param grid: 
{'c_model': 'm5', 'b_n_batch': 128, 'a_n_read': 40, 'n': 500}
_________________________________________________________________
Layer (type)                 Output Shape              Param #   
=================================================================
input_1 (InputLayer)         (None, 5120)              0         
_________________________________________________________________
embedding_1 (Embedding)      (None, 5120, 128)         32896     
_________________________________________________________________
conv1d_1 (Conv1D)            (None, 5120, 32)          12320     
_________________________________________________________________
flatten_1 (Flatten)          (None, 163840)            0         
_________________________________________________________________
dense_1 (Dense)              (None, 128)               20971648  
_________________________________________________________________
dense_2 (Dense)              (None, 64)                8256      
_________________________________________________________________
dropout_1 (Dropout)          (None, 64)                0         
_________________________________________________________________
dense_3 (Dense)              (None, 5)                 325       
=================================================================
Total params: 21,025,445
Trainable params: 21,025,445
Non-trainable params: 0
_________________________________________________________________
None
Epoch 1/20

128/500 [======>.......................] - ETA: 1s - loss: 1.6155
256/500 [==============>...............] - ETA: 0s - loss: 1.6091
384/500 [======================>.......] - ETA: 0s - loss: 1.6020
…
256/500 [==============>...............] - ETA: 3s - loss: 1.2371
384/500 [======================>.......] - ETA: 1s - loss: 1.2739
500/500 [==============================] - 7s 13ms/step - loss: 1.2691
/gpu:0: 0.1261m (0.3782s per epoch).
/cpu:0: 2.2543m (6.763s per epoch).

Generating 500 batches of 40 reads each.
Benchmarking /gpu:0.
Param grid: 
{'c_model': 'm6', 'b_n_batch': 128, 'a_n_read': 40, 'n': 500}
_________________________________________________________________
Layer (type)                 Output Shape              Param #   
=================================================================
input_1 (InputLayer)         (None, 5120)              0         
_________________________________________________________________
embedding_1 (Embedding)      (None, 5120, 128)         32896     
_________________________________________________________________
conv1d_1 (Conv1D)            (None, 5120, 32)          12320     
_________________________________________________________________
flatten_1 (Flatten)          (None, 163840)            0         
_________________________________________________________________
dense_1 (Dense)              (None, 128)               20971648  
_________________________________________________________________
dense_2 (Dense)              (None, 64)                8256      
_________________________________________________________________
dense_3 (Dense)              (None, 32)                2080      
_________________________________________________________________
dropout_1 (Dropout)          (None, 32)                0         
_________________________________________________________________
dense_4 (Dense)              (None, 5)                 165       
=================================================================
Total params: 21,027,365
Trainable params: 21,027,365
Non-trainable params: 0
_________________________________________________________________
None
Epoch 1/20

128/500 [======>.......................] - ETA: 1s - loss: 1.6105
256/500 [==============>...............] - ETA: 0s - loss: 1.6064
384/500 [======================>.......] - ETA: 0s - loss: 1.6038
…
256/500 [==============>...............] - ETA: 3s - loss: 1.3123
384/500 [======================>.......] - ETA: 1s - loss: 1.3276
500/500 [==============================] - 7s 13ms/step - loss: 1.3289
/gpu:0: 0.1268m (0.3804s per epoch).
/cpu:0: 2.2628m (6.7883s per epoch).

Generating 500 batches of 40 reads each.
Benchmarking /gpu:0.
Param grid: 
{'c_model': 'm7', 'b_n_batch': 128, 'a_n_read': 40, 'n': 500}
_________________________________________________________________
Layer (type)                 Output Shape              Param #   
=================================================================
input_1 (InputLayer)         (None, 5120)              0         
_________________________________________________________________
embedding_1 (Embedding)      (None, 5120, 128)         32896     
_________________________________________________________________
conv1d_1 (Conv1D)            (None, 5120, 32)          12320     
_________________________________________________________________
dropout_1 (Dropout)          (None, 5120, 32)          0         
_________________________________________________________________
conv1d_2 (Conv1D)            (None, 5120, 32)          3104      
_________________________________________________________________
flatten_1 (Flatten)          (None, 163840)            0         
_________________________________________________________________
dense_1 (Dense)              (None, 128)               20971648  
_________________________________________________________________
dense_2 (Dense)              (None, 64)                8256      
_________________________________________________________________
dense_3 (Dense)              (None, 32)                2080      
_________________________________________________________________
dropout_2 (Dropout)          (None, 32)                0         
_________________________________________________________________
dense_4 (Dense)              (None, 5)                 165       
=================================================================
Total params: 21,030,469
Trainable params: 21,030,469
Non-trainable params: 0
_________________________________________________________________
None
Epoch 1/20

128/500 [======>.......................] - ETA: 2s - loss: 1.6051
256/500 [==============>...............] - ETA: 0s - loss: 1.6000
384/500 [======================>.......] - ETA: 0s - loss: 1.5952
…
448/500 [=========================>....] - ETA: 1s - loss: 0.9252
480/500 [===========================>..] - ETA: 0s - loss: 0.9245
500/500 [==============================] - 12s 24ms/step - loss: 0.9305
/gpu:0: 0.2534m (0.7603s per epoch).
/cpu:0: 4.0777m (12.233s per epoch).

Generating 500 batches of 30 reads each.
Benchmarking /gpu:0.
Param grid: 
{'c_model': 'm1', 'b_n_batch': 128, 'a_n_read': 30, 'n': 500}
_________________________________________________________________
Layer (type)                 Output Shape              Param #   
=================================================================
input_1 (InputLayer)         (None, 3840)              0         
_________________________________________________________________
embedding_1 (Embedding)      (None, 3840, 128)         32896     
_________________________________________________________________
flatten_1 (Flatten)          (None, 491520)            0         
_________________________________________________________________
dense_1 (Dense)              (None, 128)               62914688  
_________________________________________________________________
dropout_1 (Dropout)          (None, 128)               0         
_________________________________________________________________
dense_2 (Dense)              (None, 5)                 645       
=================================================================
Total params: 62,948,229
Trainable params: 62,948,229
Non-trainable params: 0
_________________________________________________________________
None
Epoch 1/20

128/500 [======>.......................] - ETA: 2s - loss: 1.6132
256/500 [==============>...............] - ETA: 0s - loss: 1.5807
384/500 [======================>.......] - ETA: 0s - loss: 1.5569
…
256/500 [==============>...............] - ETA: 2s - loss: 0.7844
384/500 [======================>.......] - ETA: 1s - loss: 0.7602
500/500 [==============================] - 6s 12ms/step - loss: 0.7642
/gpu:0: 0.1137m (0.3411s per epoch).
/cpu:0: 2.0126m (6.0379s per epoch).

Generating 500 batches of 30 reads each.
Benchmarking /gpu:0.
Param grid: 
{'c_model': 'm2', 'b_n_batch': 128, 'a_n_read': 30, 'n': 500}
_________________________________________________________________
Layer (type)                 Output Shape              Param #   
=================================================================
input_1 (InputLayer)         (None, 3840)              0         
_________________________________________________________________
embedding_1 (Embedding)      (None, 3840, 128)         32896     
_________________________________________________________________
flatten_1 (Flatten)          (None, 491520)            0         
_________________________________________________________________
dense_1 (Dense)              (None, 128)               62914688  
_________________________________________________________________
dense_2 (Dense)              (None, 64)                8256      
_________________________________________________________________
dropout_1 (Dropout)          (None, 64)                0         
_________________________________________________________________
dense_3 (Dense)              (None, 5)                 325       
=================================================================
Total params: 62,956,165
Trainable params: 62,956,165
Non-trainable params: 0
_________________________________________________________________
None
Epoch 1/20

128/500 [======>.......................] - ETA: 2s - loss: 1.6053
256/500 [==============>...............] - ETA: 0s - loss: 1.5903
384/500 [======================>.......] - ETA: 0s - loss: 1.5794
…
256/500 [==============>...............] - ETA: 2s - loss: 0.8828
384/500 [======================>.......] - ETA: 1s - loss: 0.8960
500/500 [==============================] - 6s 12ms/step - loss: 0.8843
/gpu:0: 0.1144m (0.3433s per epoch).
/cpu:0: 2.0087m (6.0261s per epoch).

Generating 500 batches of 30 reads each.
Benchmarking /gpu:0.
Param grid: 
{'c_model': 'm3', 'b_n_batch': 128, 'a_n_read': 30, 'n': 500}
_________________________________________________________________
Layer (type)                 Output Shape              Param #   
=================================================================
input_1 (InputLayer)         (None, 3840)              0         
_________________________________________________________________
embedding_1 (Embedding)      (None, 3840, 128)         32896     
_________________________________________________________________
flatten_1 (Flatten)          (None, 491520)            0         
_________________________________________________________________
dense_1 (Dense)              (None, 128)               62914688  
_________________________________________________________________
dense_2 (Dense)              (None, 64)                8256      
_________________________________________________________________
dense_3 (Dense)              (None, 32)                2080      
_________________________________________________________________
dropout_1 (Dropout)          (None, 32)                0         
_________________________________________________________________
dense_4 (Dense)              (None, 5)                 165       
=================================================================
Total params: 62,958,085
Trainable params: 62,958,085
Non-trainable params: 0
_________________________________________________________________
None
Epoch 1/20

128/500 [======>.......................] - ETA: 2s - loss: 1.6107
256/500 [==============>...............] - ETA: 0s - loss: 1.6082
384/500 [======================>.......] - ETA: 0s - loss: 1.6057
…
256/500 [==============>...............] - ETA: 2s - loss: 1.0638
384/500 [======================>.......] - ETA: 1s - loss: 1.0754
500/500 [==============================] - 6s 12ms/step - loss: 1.0563
/gpu:0: 0.1144m (0.3431s per epoch).
/cpu:0: 2.0044m (6.0131s per epoch).

Generating 500 batches of 30 reads each.
Benchmarking /gpu:0.
Param grid: 
{'c_model': 'm4', 'b_n_batch': 128, 'a_n_read': 30, 'n': 500}
_________________________________________________________________
Layer (type)                 Output Shape              Param #   
=================================================================
input_1 (InputLayer)         (None, 3840)              0         
_________________________________________________________________
embedding_1 (Embedding)      (None, 3840, 128)         32896     
_________________________________________________________________
conv1d_1 (Conv1D)            (None, 3840, 32)          12320     
_________________________________________________________________
flatten_1 (Flatten)          (None, 122880)            0         
_________________________________________________________________
dense_1 (Dense)              (None, 128)               15728768  
_________________________________________________________________
dropout_1 (Dropout)          (None, 128)               0         
_________________________________________________________________
dense_2 (Dense)              (None, 5)                 645       
=================================================================
Total params: 15,774,629
Trainable params: 15,774,629
Non-trainable params: 0
_________________________________________________________________
None
Epoch 1/20

128/500 [======>.......................] - ETA: 1s - loss: 1.6083
256/500 [==============>...............] - ETA: 0s - loss: 1.6031
384/500 [======================>.......] - ETA: 0s - loss: 1.5969
…
256/500 [==============>...............] - ETA: 2s - loss: 1.2034
384/500 [======================>.......] - ETA: 1s - loss: 1.2277
500/500 [==============================] - 5s 10ms/step - loss: 1.2248
/gpu:0: 0.0999m (0.2998s per epoch).
/cpu:0: 1.7126m (5.1379s per epoch).

Generating 500 batches of 30 reads each.
Benchmarking /gpu:0.
Param grid: 
{'c_model': 'm5', 'b_n_batch': 128, 'a_n_read': 30, 'n': 500}
_________________________________________________________________
Layer (type)                 Output Shape              Param #   
=================================================================
input_1 (InputLayer)         (None, 3840)              0         
_________________________________________________________________
embedding_1 (Embedding)      (None, 3840, 128)         32896     
_________________________________________________________________
conv1d_1 (Conv1D)            (None, 3840, 32)          12320     
_________________________________________________________________
flatten_1 (Flatten)          (None, 122880)            0         
_________________________________________________________________
dense_1 (Dense)              (None, 128)               15728768  
_________________________________________________________________
dense_2 (Dense)              (None, 64)                8256      
_________________________________________________________________
dropout_1 (Dropout)          (None, 64)                0         
_________________________________________________________________
dense_3 (Dense)              (None, 5)                 325       
=================================================================
Total params: 15,782,565
Trainable params: 15,782,565
Non-trainable params: 0
_________________________________________________________________
None
Epoch 1/20

128/500 [======>.......................] - ETA: 1s - loss: 1.6131
256/500 [==============>...............] - ETA: 0s - loss: 1.6084
384/500 [======================>.......] - ETA: 0s - loss: 1.6028
…
256/500 [==============>...............] - ETA: 2s - loss: 1.2869
384/500 [======================>.......] - ETA: 1s - loss: 1.3210
500/500 [==============================] - 5s 10ms/step - loss: 1.3227
/gpu:0: 0.0982m (0.2946s per epoch).
/cpu:0: 1.7146m (5.1437s per epoch).

Generating 500 batches of 30 reads each.
Benchmarking /gpu:0.
Param grid: 
{'c_model': 'm6', 'b_n_batch': 128, 'a_n_read': 30, 'n': 500}
_________________________________________________________________
Layer (type)                 Output Shape              Param #   
=================================================================
input_1 (InputLayer)         (None, 3840)              0         
_________________________________________________________________
embedding_1 (Embedding)      (None, 3840, 128)         32896     
_________________________________________________________________
conv1d_1 (Conv1D)            (None, 3840, 32)          12320     
_________________________________________________________________
flatten_1 (Flatten)          (None, 122880)            0         
_________________________________________________________________
dense_1 (Dense)              (None, 128)               15728768  
_________________________________________________________________
dense_2 (Dense)              (None, 64)                8256      
_________________________________________________________________
dense_3 (Dense)              (None, 32)                2080      
_________________________________________________________________
dropout_1 (Dropout)          (None, 32)                0         
_________________________________________________________________
dense_4 (Dense)              (None, 5)                 165       
=================================================================
Total params: 15,784,485
Trainable params: 15,784,485
Non-trainable params: 0
_________________________________________________________________
None
Epoch 1/20

128/500 [======>.......................] - ETA: 1s - loss: 1.6089
256/500 [==============>...............] - ETA: 0s - loss: 1.6076
384/500 [======================>.......] - ETA: 0s - loss: 1.6058
…
256/500 [==============>...............] - ETA: 2s - loss: 1.3561
384/500 [======================>.......] - ETA: 1s - loss: 1.3735
500/500 [==============================] - 5s 10ms/step - loss: 1.3761
/gpu:0: 0.0982m (0.2946s per epoch).
/cpu:0: 1.7275m (5.1826s per epoch).

Generating 500 batches of 30 reads each.
Benchmarking /gpu:0.
Param grid: 
{'c_model': 'm7', 'b_n_batch': 128, 'a_n_read': 30, 'n': 500}
_________________________________________________________________
Layer (type)                 Output Shape              Param #   
=================================================================
input_1 (InputLayer)         (None, 3840)              0         
_________________________________________________________________
embedding_1 (Embedding)      (None, 3840, 128)         32896     
_________________________________________________________________
conv1d_1 (Conv1D)            (None, 3840, 32)          12320     
_________________________________________________________________
dropout_1 (Dropout)          (None, 3840, 32)          0         
_________________________________________________________________
conv1d_2 (Conv1D)            (None, 3840, 32)          3104      
_________________________________________________________________
flatten_1 (Flatten)          (None, 122880)            0         
_________________________________________________________________
dense_1 (Dense)              (None, 128)               15728768  
_________________________________________________________________
dense_2 (Dense)              (None, 64)                8256      
_________________________________________________________________
dense_3 (Dense)              (None, 32)                2080      
_________________________________________________________________
dropout_2 (Dropout)          (None, 32)                0         
_________________________________________________________________
dense_4 (Dense)              (None, 5)                 165       
=================================================================
Total params: 15,787,589
Trainable params: 15,787,589
Non-trainable params: 0
_________________________________________________________________
None
Epoch 1/20

128/500 [======>.......................] - ETA: 1s - loss: 1.6047
256/500 [==============>...............] - ETA: 0s - loss: 1.6038
384/500 [======================>.......] - ETA: 0s - loss: 1.6018
…
448/500 [=========================>....] - ETA: 0s - loss: 1.1398
480/500 [===========================>..] - ETA: 0s - loss: 1.1446
500/500 [==============================] - 9s 19ms/step - loss: 1.1511
/gpu:0: 0.1999m (0.5997s per epoch).
/cpu:0: 3.1079m (9.3238s per epoch).

Generating 500 batches of 20 reads each.
Benchmarking /gpu:0.
Param grid: 
{'c_model': 'm1', 'b_n_batch': 128, 'a_n_read': 20, 'n': 500}
_________________________________________________________________
Layer (type)                 Output Shape              Param #   
=================================================================
input_1 (InputLayer)         (None, 2560)              0         
_________________________________________________________________
embedding_1 (Embedding)      (None, 2560, 128)         32896     
_________________________________________________________________
flatten_1 (Flatten)          (None, 327680)            0         
_________________________________________________________________
dense_1 (Dense)              (None, 128)               41943168  
_________________________________________________________________
dropout_1 (Dropout)          (None, 128)               0         
_________________________________________________________________
dense_2 (Dense)              (None, 5)                 645       
=================================================================
Total params: 41,976,709
Trainable params: 41,976,709
Non-trainable params: 0
_________________________________________________________________
None
Epoch 1/20

128/500 [======>.......................] - ETA: 1s - loss: 1.6185
256/500 [==============>...............] - ETA: 0s - loss: 1.5916
384/500 [======================>.......] - ETA: 0s - loss: 1.5741
…
256/500 [==============>...............] - ETA: 1s - loss: 0.9341
384/500 [======================>.......] - ETA: 0s - loss: 0.9117
500/500 [==============================] - 4s 8ms/step - loss: 0.9138
/gpu:0: 0.0798m (0.2394s per epoch).
/cpu:0: 1.3406m (4.0219s per epoch).

Generating 500 batches of 20 reads each.
Benchmarking /gpu:0.
Param grid: 
{'c_model': 'm2', 'b_n_batch': 128, 'a_n_read': 20, 'n': 500}
_________________________________________________________________
Layer (type)                 Output Shape              Param #   
=================================================================
input_1 (InputLayer)         (None, 2560)              0         
_________________________________________________________________
embedding_1 (Embedding)      (None, 2560, 128)         32896     
_________________________________________________________________
flatten_1 (Flatten)          (None, 327680)            0         
_________________________________________________________________
dense_1 (Dense)              (None, 128)               41943168  
_________________________________________________________________
dense_2 (Dense)              (None, 64)                8256      
_________________________________________________________________
dropout_1 (Dropout)          (None, 64)                0         
_________________________________________________________________
dense_3 (Dense)              (None, 5)                 325       
=================================================================
Total params: 41,984,645
Trainable params: 41,984,645
Non-trainable params: 0
_________________________________________________________________
None
Epoch 1/20

128/500 [======>.......................] - ETA: 1s - loss: 1.6100
256/500 [==============>...............] - ETA: 0s - loss: 1.6008
384/500 [======================>.......] - ETA: 0s - loss: 1.5947
…
256/500 [==============>...............] - ETA: 1s - loss: 1.0514
384/500 [======================>.......] - ETA: 0s - loss: 1.0678
500/500 [==============================] - 4s 8ms/step - loss: 1.0552
/gpu:0: 0.08m (0.24s per epoch).
/cpu:0: 1.3444m (4.0333s per epoch).

Generating 500 batches of 20 reads each.
Benchmarking /gpu:0.
Param grid: 
{'c_model': 'm3', 'b_n_batch': 128, 'a_n_read': 20, 'n': 500}
_________________________________________________________________
Layer (type)                 Output Shape              Param #   
=================================================================
input_1 (InputLayer)         (None, 2560)              0         
_________________________________________________________________
embedding_1 (Embedding)      (None, 2560, 128)         32896     
_________________________________________________________________
flatten_1 (Flatten)          (None, 327680)            0         
_________________________________________________________________
dense_1 (Dense)              (None, 128)               41943168  
_________________________________________________________________
dense_2 (Dense)              (None, 64)                8256      
_________________________________________________________________
dense_3 (Dense)              (None, 32)                2080      
_________________________________________________________________
dropout_1 (Dropout)          (None, 32)                0         
_________________________________________________________________
dense_4 (Dense)              (None, 5)                 165       
=================================================================
Total params: 41,986,565
Trainable params: 41,986,565
Non-trainable params: 0
_________________________________________________________________
None
Epoch 1/20

128/500 [======>.......................] - ETA: 1s - loss: 1.6121
256/500 [==============>...............] - ETA: 0s - loss: 1.6108
384/500 [======================>.......] - ETA: 0s - loss: 1.6082
…
256/500 [==============>...............] - ETA: 1s - loss: 1.1313
384/500 [======================>.......] - ETA: 0s - loss: 1.1357
500/500 [==============================] - 4s 8ms/step - loss: 1.1212
/gpu:0: 0.0815m (0.2445s per epoch).
/cpu:0: 1.3363m (4.0089s per epoch).

Generating 500 batches of 20 reads each.
Benchmarking /gpu:0.
Param grid: 
{'c_model': 'm4', 'b_n_batch': 128, 'a_n_read': 20, 'n': 500}
_________________________________________________________________
Layer (type)                 Output Shape              Param #   
=================================================================
input_1 (InputLayer)         (None, 2560)              0         
_________________________________________________________________
embedding_1 (Embedding)      (None, 2560, 128)         32896     
_________________________________________________________________
conv1d_1 (Conv1D)            (None, 2560, 32)          12320     
_________________________________________________________________
flatten_1 (Flatten)          (None, 81920)             0         
_________________________________________________________________
dense_1 (Dense)              (None, 128)               10485888  
_________________________________________________________________
dropout_1 (Dropout)          (None, 128)               0         
_________________________________________________________________
dense_2 (Dense)              (None, 5)                 645       
=================================================================
Total params: 10,531,749
Trainable params: 10,531,749
Non-trainable params: 0
_________________________________________________________________
None
Epoch 1/20

128/500 [======>.......................] - ETA: 1s - loss: 1.6063
384/500 [======================>.......] - ETA: 0s - loss: 1.5927
500/500 [==============================] - 1s 1ms/step - loss: 1.5882
…
256/500 [==============>...............] - ETA: 1s - loss: 1.2545
384/500 [======================>.......] - ETA: 0s - loss: 1.2774
500/500 [==============================] - 3s 7ms/step - loss: 1.2761
/gpu:0: 0.0711m (0.2132s per epoch).
/cpu:0: 1.1272m (3.3815s per epoch).

Generating 500 batches of 20 reads each.
Benchmarking /gpu:0.
Param grid: 
{'c_model': 'm5', 'b_n_batch': 128, 'a_n_read': 20, 'n': 500}
_________________________________________________________________
Layer (type)                 Output Shape              Param #   
=================================================================
input_1 (InputLayer)         (None, 2560)              0         
_________________________________________________________________
embedding_1 (Embedding)      (None, 2560, 128)         32896     
_________________________________________________________________
conv1d_1 (Conv1D)            (None, 2560, 32)          12320     
_________________________________________________________________
flatten_1 (Flatten)          (None, 81920)             0         
_________________________________________________________________
dense_1 (Dense)              (None, 128)               10485888  
_________________________________________________________________
dense_2 (Dense)              (None, 64)                8256      
_________________________________________________________________
dropout_1 (Dropout)          (None, 64)                0         
_________________________________________________________________
dense_3 (Dense)              (None, 5)                 325       
=================================================================
Total params: 10,539,685
Trainable params: 10,539,685
Non-trainable params: 0
_________________________________________________________________
None
Epoch 1/20

128/500 [======>.......................] - ETA: 1s - loss: 1.6127
256/500 [==============>...............] - ETA: 0s - loss: 1.6078
500/500 [==============================] - 1s 1ms/step - loss: 1.5991
…
256/500 [==============>...............] - ETA: 1s - loss: 1.3341
384/500 [======================>.......] - ETA: 0s - loss: 1.3638
500/500 [==============================] - 3s 7ms/step - loss: 1.3655
/gpu:0: 0.0703m (0.2109s per epoch).
/cpu:0: 1.1363m (3.409s per epoch).

Generating 500 batches of 20 reads each.
Benchmarking /gpu:0.
Param grid: 
{'c_model': 'm6', 'b_n_batch': 128, 'a_n_read': 20, 'n': 500}
_________________________________________________________________
Layer (type)                 Output Shape              Param #   
=================================================================
input_1 (InputLayer)         (None, 2560)              0         
_________________________________________________________________
embedding_1 (Embedding)      (None, 2560, 128)         32896     
_________________________________________________________________
conv1d_1 (Conv1D)            (None, 2560, 32)          12320     
_________________________________________________________________
flatten_1 (Flatten)          (None, 81920)             0         
_________________________________________________________________
dense_1 (Dense)              (None, 128)               10485888  
_________________________________________________________________
dense_2 (Dense)              (None, 64)                8256      
_________________________________________________________________
dense_3 (Dense)              (None, 32)                2080      
_________________________________________________________________
dropout_1 (Dropout)          (None, 32)                0         
_________________________________________________________________
dense_4 (Dense)              (None, 5)                 165       
=================================================================
Total params: 10,541,605
Trainable params: 10,541,605
Non-trainable params: 0
_________________________________________________________________
None
Epoch 1/20

128/500 [======>.......................] - ETA: 1s - loss: 1.6050
384/500 [======================>.......] - ETA: 0s - loss: 1.6006
500/500 [==============================] - 1s 1ms/step - loss: 1.5964
…
256/500 [==============>...............] - ETA: 1s - loss: 1.3789
384/500 [======================>.......] - ETA: 0s - loss: 1.4049
500/500 [==============================] - 3s 7ms/step - loss: 1.4069
/gpu:0: 0.071m (0.2131s per epoch).
/cpu:0: 1.1405m (3.4216s per epoch).

Generating 500 batches of 20 reads each.
Benchmarking /gpu:0.
Param grid: 
{'c_model': 'm7', 'b_n_batch': 128, 'a_n_read': 20, 'n': 500}
_________________________________________________________________
Layer (type)                 Output Shape              Param #   
=================================================================
input_1 (InputLayer)         (None, 2560)              0         
_________________________________________________________________
embedding_1 (Embedding)      (None, 2560, 128)         32896     
_________________________________________________________________
conv1d_1 (Conv1D)            (None, 2560, 32)          12320     
_________________________________________________________________
dropout_1 (Dropout)          (None, 2560, 32)          0         
_________________________________________________________________
conv1d_2 (Conv1D)            (None, 2560, 32)          3104      
_________________________________________________________________
flatten_1 (Flatten)          (None, 81920)             0         
_________________________________________________________________
dense_1 (Dense)              (None, 128)               10485888  
_________________________________________________________________
dense_2 (Dense)              (None, 64)                8256      
_________________________________________________________________
dense_3 (Dense)              (None, 32)                2080      
_________________________________________________________________
dropout_2 (Dropout)          (None, 32)                0         
_________________________________________________________________
dense_4 (Dense)              (None, 5)                 165       
=================================================================
Total params: 10,544,709
Trainable params: 10,544,709
Non-trainable params: 0
_________________________________________________________________
None
Epoch 1/20

128/500 [======>.......................] - ETA: 1s - loss: 1.6024
256/500 [==============>...............] - ETA: 0s - loss: 1.6021
384/500 [======================>.......] - ETA: 0s - loss: 1.5994
…
448/500 [=========================>....] - ETA: 0s - loss: 1.1892
480/500 [===========================>..] - ETA: 0s - loss: 1.1942
500/500 [==============================] - 6s 12ms/step - loss: 1.2001
/gpu:0: 0.1458m (0.4373s per epoch).
/cpu:0: 2.0841m (6.2524s per epoch).

Generating 500 batches of 10 reads each.
Benchmarking /gpu:0.
Param grid: 
{'c_model': 'm1', 'b_n_batch': 128, 'a_n_read': 10, 'n': 500}
_________________________________________________________________
Layer (type)                 Output Shape              Param #   
=================================================================
input_1 (InputLayer)         (None, 1280)              0         
_________________________________________________________________
embedding_1 (Embedding)      (None, 1280, 128)         32896     
_________________________________________________________________
flatten_1 (Flatten)          (None, 163840)            0         
_________________________________________________________________
dense_1 (Dense)              (None, 128)               20971648  
_________________________________________________________________
dropout_1 (Dropout)          (None, 128)               0         
_________________________________________________________________
dense_2 (Dense)              (None, 5)                 645       
=================================================================
Total params: 21,005,189
Trainable params: 21,005,189
Non-trainable params: 0
_________________________________________________________________
None
Epoch 1/20

128/500 [======>.......................] - ETA: 1s - loss: 1.6088
384/500 [======================>.......] - ETA: 0s - loss: 1.5827
500/500 [==============================] - 0s 960us/step - loss: 1.5693
…
256/500 [==============>...............] - ETA: 0s - loss: 1.1275
384/500 [======================>.......] - ETA: 0s - loss: 1.1150
500/500 [==============================] - 2s 4ms/step - loss: 1.1235
/gpu:0: 0.0457m (0.1372s per epoch).
/cpu:0: 0.6672m (2.0015s per epoch).

Generating 500 batches of 10 reads each.
Benchmarking /gpu:0.
Param grid: 
{'c_model': 'm2', 'b_n_batch': 128, 'a_n_read': 10, 'n': 500}
_________________________________________________________________
Layer (type)                 Output Shape              Param #   
=================================================================
input_1 (InputLayer)         (None, 1280)              0         
_________________________________________________________________
embedding_1 (Embedding)      (None, 1280, 128)         32896     
_________________________________________________________________
flatten_1 (Flatten)          (None, 163840)            0         
_________________________________________________________________
dense_1 (Dense)              (None, 128)               20971648  
_________________________________________________________________
dense_2 (Dense)              (None, 64)                8256      
_________________________________________________________________
dropout_1 (Dropout)          (None, 64)                0         
_________________________________________________________________
dense_3 (Dense)              (None, 5)                 325       
=================================================================
Total params: 21,013,125
Trainable params: 21,013,125
Non-trainable params: 0
_________________________________________________________________
None
Epoch 1/20

128/500 [======>.......................] - ETA: 1s - loss: 1.6060
384/500 [======================>.......] - ETA: 0s - loss: 1.6028
500/500 [==============================] - 0s 979us/step - loss: 1.5978
…
256/500 [==============>...............] - ETA: 0s - loss: 1.1991
384/500 [======================>.......] - ETA: 0s - loss: 1.2141
500/500 [==============================] - 2s 4ms/step - loss: 1.2055
/gpu:0: 0.0454m (0.1361s per epoch).
/cpu:0: 0.6625m (1.9876s per epoch).

Generating 500 batches of 10 reads each.
Benchmarking /gpu:0.
Param grid: 
{'c_model': 'm3', 'b_n_batch': 128, 'a_n_read': 10, 'n': 500}
_________________________________________________________________
Layer (type)                 Output Shape              Param #   
=================================================================
input_1 (InputLayer)         (None, 1280)              0         
_________________________________________________________________
embedding_1 (Embedding)      (None, 1280, 128)         32896     
_________________________________________________________________
flatten_1 (Flatten)          (None, 163840)            0         
_________________________________________________________________
dense_1 (Dense)              (None, 128)               20971648  
_________________________________________________________________
dense_2 (Dense)              (None, 64)                8256      
_________________________________________________________________
dense_3 (Dense)              (None, 32)                2080      
_________________________________________________________________
dropout_1 (Dropout)          (None, 32)                0         
_________________________________________________________________
dense_4 (Dense)              (None, 5)                 165       
=================================================================
Total params: 21,015,045
Trainable params: 21,015,045
Non-trainable params: 0
_________________________________________________________________
None
Epoch 1/20

128/500 [======>.......................] - ETA: 1s - loss: 1.6099
384/500 [======================>.......] - ETA: 0s - loss: 1.6080
500/500 [==============================] - 1s 1ms/step - loss: 1.6065
…
256/500 [==============>...............] - ETA: 0s - loss: 1.2985
384/500 [======================>.......] - ETA: 0s - loss: 1.3101
500/500 [==============================] - 2s 4ms/step - loss: 1.3021
/gpu:0: 0.0473m (0.1418s per epoch).
/cpu:0: 0.6666m (1.9997s per epoch).

Generating 500 batches of 10 reads each.
Benchmarking /gpu:0.
Param grid: 
{'c_model': 'm4', 'b_n_batch': 128, 'a_n_read': 10, 'n': 500}
_________________________________________________________________
Layer (type)                 Output Shape              Param #   
=================================================================
input_1 (InputLayer)         (None, 1280)              0         
_________________________________________________________________
embedding_1 (Embedding)      (None, 1280, 128)         32896     
_________________________________________________________________
conv1d_1 (Conv1D)            (None, 1280, 32)          12320     
_________________________________________________________________
flatten_1 (Flatten)          (None, 40960)             0         
_________________________________________________________________
dense_1 (Dense)              (None, 128)               5243008   
_________________________________________________________________
dropout_1 (Dropout)          (None, 128)               0         
_________________________________________________________________
dense_2 (Dense)              (None, 5)                 645       
=================================================================
Total params: 5,288,869
Trainable params: 5,288,869
Non-trainable params: 0
_________________________________________________________________
None
Epoch 1/20

128/500 [======>.......................] - ETA: 1s - loss: 1.6092
384/500 [======================>.......] - ETA: 0s - loss: 1.6017
500/500 [==============================] - 0s 949us/step - loss: 1.5978
…
256/500 [==============>...............] - ETA: 0s - loss: 1.3115
384/500 [======================>.......] - ETA: 0s - loss: 1.3406
500/500 [==============================] - 2s 3ms/step - loss: 1.3413
/gpu:0: 0.0425m (0.1274s per epoch).
/cpu:0: 0.5602m (1.6805s per epoch).

Generating 500 batches of 10 reads each.
Benchmarking /gpu:0.
Param grid: 
{'c_model': 'm5', 'b_n_batch': 128, 'a_n_read': 10, 'n': 500}
_________________________________________________________________
Layer (type)                 Output Shape              Param #   
=================================================================
input_1 (InputLayer)         (None, 1280)              0         
_________________________________________________________________
embedding_1 (Embedding)      (None, 1280, 128)         32896     
_________________________________________________________________
conv1d_1 (Conv1D)            (None, 1280, 32)          12320     
_________________________________________________________________
flatten_1 (Flatten)          (None, 40960)             0         
_________________________________________________________________
dense_1 (Dense)              (None, 128)               5243008   
_________________________________________________________________
dense_2 (Dense)              (None, 64)                8256      
_________________________________________________________________
dropout_1 (Dropout)          (None, 64)                0         
_________________________________________________________________
dense_3 (Dense)              (None, 5)                 325       
=================================================================
Total params: 5,296,805
Trainable params: 5,296,805
Non-trainable params: 0
_________________________________________________________________
None
Epoch 1/20

128/500 [======>.......................] - ETA: 0s - loss: 1.6142
384/500 [======================>.......] - ETA: 0s - loss: 1.6090
500/500 [==============================] - 0s 813us/step - loss: 1.6069
…
256/500 [==============>...............] - ETA: 0s - loss: 1.3853
384/500 [======================>.......] - ETA: 0s - loss: 1.4109
500/500 [==============================] - 2s 3ms/step - loss: 1.4139
/gpu:0: 0.0423m (0.127s per epoch).
/cpu:0: 0.5618m (1.6855s per epoch).

Generating 500 batches of 10 reads each.
Benchmarking /gpu:0.
Param grid: 
{'c_model': 'm6', 'b_n_batch': 128, 'a_n_read': 10, 'n': 500}
_________________________________________________________________
Layer (type)                 Output Shape              Param #   
=================================================================
input_1 (InputLayer)         (None, 1280)              0         
_________________________________________________________________
embedding_1 (Embedding)      (None, 1280, 128)         32896     
_________________________________________________________________
conv1d_1 (Conv1D)            (None, 1280, 32)          12320     
_________________________________________________________________
flatten_1 (Flatten)          (None, 40960)             0         
_________________________________________________________________
dense_1 (Dense)              (None, 128)               5243008   
_________________________________________________________________
dense_2 (Dense)              (None, 64)                8256      
_________________________________________________________________
dense_3 (Dense)              (None, 32)                2080      
_________________________________________________________________
dropout_1 (Dropout)          (None, 32)                0         
_________________________________________________________________
dense_4 (Dense)              (None, 5)                 165       
=================================================================
Total params: 5,298,725
Trainable params: 5,298,725
Non-trainable params: 0
_________________________________________________________________
None
Epoch 1/20

128/500 [======>.......................] - ETA: 0s - loss: 1.5970
384/500 [======================>.......] - ETA: 0s - loss: 1.5945
500/500 [==============================] - 0s 817us/step - loss: 1.5907
…
256/500 [==============>...............] - ETA: 0s - loss: 1.4060
384/500 [======================>.......] - ETA: 0s - loss: 1.4253
500/500 [==============================] - 2s 3ms/step - loss: 1.4313
/gpu:0: 0.0428m (0.1283s per epoch).
/cpu:0: 0.562m (1.6859s per epoch).

Generating 500 batches of 10 reads each.
Benchmarking /gpu:0.
Param grid: 
{'c_model': 'm7', 'b_n_batch': 128, 'a_n_read': 10, 'n': 500}
_________________________________________________________________
Layer (type)                 Output Shape              Param #   
=================================================================
input_1 (InputLayer)         (None, 1280)              0         
_________________________________________________________________
embedding_1 (Embedding)      (None, 1280, 128)         32896     
_________________________________________________________________
conv1d_1 (Conv1D)            (None, 1280, 32)          12320     
_________________________________________________________________
dropout_1 (Dropout)          (None, 1280, 32)          0         
_________________________________________________________________
conv1d_2 (Conv1D)            (None, 1280, 32)          3104      
_________________________________________________________________
flatten_1 (Flatten)          (None, 40960)             0         
_________________________________________________________________
dense_1 (Dense)              (None, 128)               5243008   
_________________________________________________________________
dense_2 (Dense)              (None, 64)                8256      
_________________________________________________________________
dense_3 (Dense)              (None, 32)                2080      
_________________________________________________________________
dropout_2 (Dropout)          (None, 32)                0         
_________________________________________________________________
dense_4 (Dense)              (None, 5)                 165       
=================================================================
Total params: 5,301,829
Trainable params: 5,301,829
Non-trainable params: 0
_________________________________________________________________
None
Epoch 1/20

128/500 [======>.......................] - ETA: 1s - loss: 1.6013
384/500 [======================>.......] - ETA: 0s - loss: 1.5992
500/500 [==============================] - 1s 1ms/step - loss: 1.5965
…
